net_and_train/version1/net/net.pkl (torch_old, 146566 bytes, 16 tensors)

weight f4 [8, 2, 3, 3]
000000 36 bc e4 3d 22 57 8f bd 57 85 e2 3c fd b0 08 3e
       0.11168711 -0.06999041 0.027651472 0.13348766
000010 92 df 93 be 83 d3 79 bc 98 16 2e 3e 52 4e 3e be
       -0.28881508 -0.015248182 0.17000806 -0.18584564
000020 a7 6e 0b be 39 24 44 3e fb 98 f8 3d 99 43 56 3c
       -0.1361643 0.19154443 0.12138554 0.01307764
000030 4b ee 5b 3e 9a dd 34 3e b1 ff bf 3d e7 5a f8 bd
       0.2147762 0.1766266 0.09374941 -0.12126713
000040 e8 43 59 bd 63 9e cb bd fb c0 c4 bc 6b c8 b2 3d
       -0.053043276 -0.09942319 -0.024017802 0.08729633
000050 3f 45 90 3d df 0b 0b be b9 23 80 3e b3 3a 37 be
       0.07044458 -0.13578747 0.25027254 -0.17893486
000060 a6 3c 0e 3e 11 81 d6 bd cd c5 97 3c ac d5 15 3e
       0.13890323 -0.10473836 0.018526936 0.1463229
000070 7d 3e cc bd ea c5 c0 bd f0 0e 6d be db 65 9a be
       -0.09972856 -0.09412749 -0.2315023 -0.30155835
000080 67 f3 8f 3c f9 3d 0c be 7a 25 79 be f9 22 1f 3e
       0.017572118 -0.13695516 -0.24330702 0.15540685
000090 e9 9f 35 be 02 b6 fb 3d b7 02 3c bd cc 0a 65 be
       -0.17736782 0.122905746 -0.045901027 -0.223674
0000a0 60 09 46 be ea 9b a4 3c fb f1 f1 3d 98 0a 52 3e
       -0.19339514 0.020093877 0.11813732 0.20511854
0000b0 47 33 56 3e 2f 4d 75 3d 53 99 85 be 31 10 13 bd
       0.20917998 0.05988806 -0.2609354 -0.035904113
0000c0 c8 76 01 3d dc 15 89 be 90 bc a9 3d 43 ae b9 3d
       0.03160742 -0.2677449 0.082879186 0.09066441
0000d0 5c 19 4c 3d 67 6c 4f be aa 72 46 be 58 14 6b be
       0.049828872 -0.20256196 -0.19379678 -0.2295698
0000e0 ff ab 21 3e 68 34 4f 3e e0 e2 8a be 01 55 59 3c
       0.15788268 0.20234835 -0.27126217 0.013264895
0000f0 b3 81 6c 3d d0 fc f3 3d 49 2b c1 bd b7 0f 29 3d
       0.05774088 0.119134545 -0.09432084 0.041274752
000100 02 6c 26 3e e9 c6 4c 3e 76 59 93 3d c0 85 71 3d
       0.16252139 0.19997753 0.07194798 0.058965445
000110 01 67 6f bc 14 5d 08 be b0 dc 8c be f5 83 a6 3d
       -0.01461196 -0.13316756 -0.2751212 0.081306376
000120 04 71 e6 3d ef d8 b8 3d b9 5b 53 be ec 1f 14 3d
       0.11252025 0.09025752 -0.20640458 0.036163256
000130 ec 3b 09 be 1c e2 f6 bd 33 4a a7 3c a4 b9 19 3c
       -0.13401765 -0.12054846 0.020421123 0.009382639
000140 d9 21 cd 3c 55 5d 8b be 74 2c 1a bc 39 37 c2 3d
       0.025040554 -0.27219644 -0.0094100125 0.09483189
000150 e8 d9 23 3d 50 70 32 3d 48 a0 f4 3d 42 07 61 be
       0.040002733 0.04356414 0.11944634 -0.21975425
000160 35 51 65 be f4 5d c7 bc 5d a8 1a 3e 51 cf 64 3e
       -0.2239426 -0.024336793 0.15103288 0.2234471
000170 2a 9f b1 3c fa cd 87 be 2d 65 a9 bd c5 b6 19 be
       0.02168234 -0.26524335 -0.08271251 -0.15011127
000180 b7 40 3e 3e 12 a4 19 be b6 49 8f 3d e8 27 07 3e
       0.18579374 -0.15003994 0.06996481 0.13198817
000190 75 0e c9 3d ea 86 b5 bd 16 07 42 bd e4 bc 3c be
       0.098172106 -0.088636234 -0.04737004 -0.18431431
0001a0 4c e5 6b 3d 0a 94 f3 bd e1 8e 30 bc 55 e6 0b be
       0.05759172 -0.118934706 -0.0107762525 -0.13662083
0001b0 6e e7 87 3d d0 c6 b9 3b 83 1b 08 be ab af 30 bd
       0.066359386 0.0056694523 -0.13291745 -0.04313628
0001c0 dd 8c fc 3d eb 7a c8 3d de 20 99 3e 09 95 89 3e
       0.12331555 0.0978907 0.29907888 0.26871517
0001d0 6e 5f 2c be 95 05 36 3e ba 73 88 be a6 b8 85 3d
       -0.16833279 0.17775567 -0.26650792 0.065293595
0001e0 3e 95 82 be 3b 42 9d 3d d5 63 88 be 67 db 86 be
       -0.25504488 0.07678648 -0.26638666 -0.26339266
0001f0 d8 d1 40 3d 76 88 f8 bd 45 bb 26 3d c4 b3 02 3e
       0.047075123 -0.12135403 0.040705938 0.12763888
000200 fc 62 9c 3d 8b a8 12 be 09 80 29 bd 65 6b 23 be
       0.07636067 -0.14322107 -0.04138187 -0.15958937
000210 f4 91 72 3e 67 c0 15 3e 7a 3e 15 be d7 22 80 3e
       0.23688489 0.14624177 -0.14574614 0.2502658
000220 63 ac 26 be cc a7 0e 3e 77 94 3e bd 4f e9 80 be
       -0.16276698 0.13931197 -0.046528306 -0.25178
000230 88 13 00 3e e1 76 9b 3d 43 56 81 be 5b 87 ca bd
       0.1250745 0.07591034 -0.25261125 -0.09889098

bias f4 [8]
000000 5f 0b 8d be 54 f6 6d 3e 20 31 6b be dd f6 83 3d
       -0.27547738 0.23238498 -0.22967958 0.0644357
000010 3f 11 da bd ea 07 62 bd 4e 2f 9b bc 91 8b 06 be
       -0.10647821 -0.05518333 -0.018943455 -0.13139178

weight f4 [16, 8, 3, 3]
000000 81 dd 43 3d 9e 12 e1 3d 02 a7 0b 3c bc 82 09 be
       0.047818664 0.10989879 0.0085237045 -0.13428777
000010 4a d2 0a 3c 3b 58 64 3d 45 41 bf bc 10 71 e9 3d
       0.008472988 0.055748206 -0.023346553 0.11398518
000020 71 b3 8e 3c 25 36 93 bd aa 8d 2a 3e 47 30 ab bd
       0.017419549 -0.071880616 0.16655603 -0.083588175
000030 57 1d 0b 3d cd 9e 12 be be 01 fc bd cb 91 53 be
       0.033963528 -0.1431839 -0.1230502 -0.20661084
000040 3d f8 1e be 71 5a 8b bd 65 3e 59 bd 52 a7 09 be
       -0.15524383 -0.0680436 -0.05303802 -0.13442734
000050 c9 c7 94 3d ec a5 59 3c 72 4c 56 3d ac e0 88 3d
       0.072646685 0.013284188 0.052318998 0.06683478
000060 5c 35 94 bd 65 48 5f be b0 50 6c 3b d6 27 0b bd
       -0.0723674 -0.2180496 0.0036058836 -0.033973537
000070 7c 80 95 bd 3b 37 d6 3d 65 b9 a4 bd c8 b7 b4 bd
       -0.07299897 0.10459753 -0.08043174 -0.08824116
000080 eb 4e 2e 3e 70 ee 0b be 28 e8 7d 3c fe fd 57 3a
       0.17022292 -0.13665175 0.015497245 0.0008239447
000090 8c ed 45 be 7c c5 4e 3d 7f 65 77 3c e7 c9 04 be
       -0.19328898 0.050481305 0.015099882 -0.12967645
0000a0 1a 63 e4 3d 92 3a 6d 3d a1 3a 12 be df c8 9e 3d
       0.111517146 0.057917185 -0.14280178 0.07753157
0000b0 37 41 4c bc cd aa 7c bd dc 39 12 3d de 94 1c be
       -0.01246672 -0.061686326 0.03569971 -0.15291163
0000c0 03 f1 70 3d de d1 3b 3e 7d c1 f7 bd 43 3a 38 be
       0.058823597 0.18341777 -0.12097452 -0.17990975
0000d0 5b a9 af bd f5 12 e6 bd 14 1d 8c bc 9b 85 8a 3d
       -0.08577224 -0.112340845 -0.01710371 0.067637645
0000e0 50 e3 84 3c 6b 57 6f 3d f2 71 cd bd 52 86 1d be
       0.016221672 0.058432978 -0.10031499 -0.1538327
0000f0 e1 e9 e2 3d 6f 07 93 bd 35 a8 34 be 02 fd 35 bd
       0.11079765 -0.07179152 -0.17642291 -0.04443074
000100 26 f4 35 be ae 89 af bd 4f de e8 3d 6c 3d 54 be
       -0.17768916 -0.08571182 0.11370527 -0.20726556
000110 26 0b 8e bd c9 c0 6d bc 0e 15 65 be 01 16 ee bd
       -0.0693572 -0.014511296 -0.22371313 -0.11625291
000120 b2 6c 48 3d 39 d1 90 3d f4 b7 05 be 75 41 12 be
       0.048931785 0.07071156 -0.13058454 -0.14282782
000130 eb d4 53 bd 69 99 33 3d 1f 99 00 3d fb bd 7e 3b
       -0.051716726 0.043847475 0.031396028 0.0038870561
000140 20 4a 60 3d 08 e4 95 3c 47 5a 88 3e bf e2 42 3d
       0.05475819 0.01829721 0.26631376 0.047579523
000150 fb c6 fc 3c b9 8f b1 3b ce 28 31 be 3f de 8d bc
       0.0308566 0.0054187444 -0.17300722 -0.01731789
000160 93 cf 06 3b 02 c6 82 bd 54 40 1f bc 37 12 31 3e
       0.0020570501 -0.06385423 -0.009719927 0.17292105
000170 15 1b 93 bd 78 43 0d be 3c 89 b7 bc 3d 8b 6b bd
       -0.071829 -0.13795269 -0.022404306 -0.057505835
000180 4f 53 43 bd c5 38 c9 3c 3f ab d6 bd cd ed 5c bd
       -0.04768687 0.024563203 -0.10481881 -0.053937722
000190 66 4e 3f 3c 2c d1 9d bd d5 20 15 be a7 2d c7 3d
       0.0116764065 -0.07705912 -0.14563306 0.09725504
0001a0 e8 5d 14 3d 69 1a 07 3c dd 1c 56 3c ac a5 0c 3d
       0.03622237 0.008246043 0.013068405 0.034337685
0001b0 f9 ab 6e bd 21 5b 00 3d be c4 09 3e a2 52 35 3d
       -0.058269475 0.031336907 0.13453957 0.044268258
0001c0 a1 78 9e bd bb 33 e7 bd 7d bd 00 3e 37 39 b1 3c
       -0.07737852 -0.11289164 0.12572284 0.021633727
0001d0 ea 55 3f bd bc 0a a5 3d ca 4a 3b 3e c2 aa 00 3e
       -0.046712793 0.08058688 0.18290249 0.12565139
0001e0 db 02 70 3e 5f 89 34 3c 9d c8 75 be 29 f6 d9 bb
       0.2343859 0.01101908 -0.24002309 -0.006651659
0001f0 3b 1e b5 bc f2 0a eb bd ad 62 4b 3e 69 e3 39 3e
       -0.022109142 -0.11476697 0.1986186 0.18153156
000200 9d dd 06 3e 81 e0 bd bd 73 14 e8 3d c0 4e 89 bd
       0.13170476 -0.09271336 0.113320254 -0.067044735
000210 b8 8c e8 bd 52 b8 64 be 13 ca a3 bd 12 d1 93 bc
       -0.11354965 -0.22335938 -0.07997527 -0.018044028
000220 3d 00 05 3e d4 0f 11 3e b8 ff 80 3b ed d0 36 be
       0.12988372 0.14166194 0.003936734 -0.17853136
000230 25 ca 1c be 31 de af bd f6 3e b0 bd 08 5e c6 3c
       -0.15311487 -0.085873015 -0.08605759 0.02421476
000240 02 8a 36 3d 34 c2 3d bd f8 0e 8c bd 2c 22 c2 3c
       0.04456521 -0.046327785 -0.068387926 0.023697935
000250 5b dd c0 bd ed ab 01 be fe c2 10 bd 8c 49 d9 bd
       -0.0941722 -0.1266324 -0.03534221 -0.10609731
000260 fb 37 33 bd ca a4 5a bd 2f ba 9e 3d 92 78 23 3d
       -0.04375456 -0.05337981 0.077503555 0.039909907
000270 0b 10 ea bd 0f b4 c7 bd 99 8c 10 bd b4 7d d8 3c
       -0.11428841 -0.0975114 -0.035290334 0.026427127
000280 09 1f a1 3d cf 48 d7 bd 9f eb d1 bd a4 b1 c1 bd
       0.078672476 -0.10511934 -0.10250019 -0.094577104
000290 15 a8 b2 3d c4 1d a6 bc 41 be 29 bd ef 35 0b 3d
       0.08723465 -0.020277865 -0.041441206 0.033986982
0002a0 91 10 d3 3d 87 d4 ed bd 32 0b a8 3d e2 a9 a6 bd
       0.10305894 -0.11612802 0.0820526 -0.08137871
0002b0 7f 6e d9 bd c0 8a 32 bd 03 1a 66 bd 62 e0 c3 bc
       -0.106167786 -0.043589354 -0.05617715 -0.023910705
0002c0 c0 a3 80 3d e8 9a be bd c9 ab 05 be dc 19 e5 bd
       0.06281233 -0.0930689 -0.13053812 -0.11186573
0002d0 9d 67 b1 3d 62 62 2f 3d 0a 9b e1 bd a0 74 37 3b
       0.08662341 0.042818435 -0.110158995 0.0027993098
0002e0 03 d0 81 bc 19 87 b6 bd 45 1d 88 3d 5e 0e 7c bd
       -0.015846258 -0.089124866 0.06646208 -0.06153714
0002f0 92 25 65 3d 58 98 3e bd 48 03 8e bc 53 01 e6 3d
       0.055944033 -0.046532005 -0.017335549 0.11230721
000300 50 27 3d bc c7 4f b2 bc 52 69 32 bd 2c 98 b4 3c
       -0.011545017 -0.021766556 -0.043557473 0.022045217
000310 94 0e 2b 3d ed 9c 05 3d d2 5d 63 3d 40 60 4e bc
       0.04176195 0.03262036 0.055509396 -0.01259619
000320 98 7c a8 bd 7a 94 71 bd c2 86 a5 3d 79 70 a7 bd
       -0.08226889 -0.05897949 0.08082344 -0.08175749
000330 dc e0 a7 bd 00 e0 12 be 6c 27 ca 3c 6c 2b 5a bd
       -0.081971854 -0.14343262 0.024677001 -0.053264067
000340 70 a8 ce 3b 3f d5 e9 bd 3e ae 98 bd 1f 03 8a 3d
       0.0063067004 -0.114176266 -0.07455109 0.067388766
000350 a0 47 a9 bd 9e 60 27 3d 5f 77 c1 bd 78 35 6b 3c
       -0.082656145 0.040863626 -0.09446596 0.01435601
000360 f1 05 01 be 7c 6f a5 3d 2d 09 a8 bd 38 9f 0d 3d
       -0.12599923 0.080779046 -0.08204875 0.03457567
000370 47 00 bf bc db 7a 05 be 05 c8 73 3d 07 af ff 3c
       -0.023315562 -0.13035147 0.059516925 0.03121139
000380 e1 59 1e 3d f4 15 f2 3d f8 93 35 3c c1 7e cf 3d
       0.038659934 0.118205935 0.011082642 0.10131598
000390 f3 a7 ed 3d 3d aa 5d bd 3e d4 ce 3d 8e 01 8f 3e
       0.116042994 -0.05411743 0.10099076 0.27930874
0003a0 75 2a e2 b9 df 05 e2 bd 73 75 a1 3d 32 b2 9b 3b
       -0.00043137712 -0.11036276 0.0788373 0.004751467
0003b0 b6 9f ac 3d 15 9b 98 bc d2 41 1b bd 20 bb ea bc
       0.084289 -0.018628636 -0.037904568 -0.028653681
0003c0 53 b7 29 3c be d9 0a 3c a6 90 0f be b3 b2 0d 3d
       0.010358649 0.008474765 -0.14020023 0.03459425
0003d0 3f c5 66 bd 84 b8 ab 3d 10 2a 66 3d c8 bc 23 bd
       -0.056340452 0.08384803 0.056192458 -0.039974958
0003e0 9e c4 ce 3d e9 09 a7 3c d3 42 d8 bd b2 f8 f7 bd
       0.100960955 0.020390468 -0.10559621 -0.12107982
0003f0 42 b4 05 3c 81 e9 08 3d c0 1c b4 3d 2a 48 17 3e
       0.008160653 0.03342581 0.08794546 0.14773622

bias f4 [16]
000000 d7 a0 a4 3d 20 1b 8f bd a3 d0 03 3c 81 f6 99 3d
       0.0803849 -0.069875956 0.008045348 0.0751772
000010 d5 7f 78 3d 6a d5 c6 3c ac 9c 39 3d ab 05 ee 3c
       0.060668785 0.024271686 0.04531543 0.029055437
000020 46 5d b9 bd 7a 0e e2 3c c5 97 23 bd 6f d6 01 be
       -0.090509936 0.027594794 -0.03993966 -0.12679456
000030 c1 06 f2 3c 72 fc 19 bd b2 50 8d 3d 3e c9 c5 bd
       0.029544236 -0.037594266 0.06900157 -0.096575245

weight f4 [32, 16, 3, 3]
000000 7b 4e ad 3b 68 4e ea ba c1 a2 06 be a0 99 46 bd
       0.0052888966 -0.001787615 -0.13148023 -0.048486352
000010 c4 87 80 bd 32 c8 71 bd 74 7f a4 bd c1 19 d3 3c
       -0.06275895 -0.05902881 -0.08032122 0.025769116
000020 c8 9d 56 bd 04 1d 36 3d 72 df 8b bc 62 4d dc bc
       -0.052396566 0.044461265 -0.01707432 -0.026892368
000030 d5 69 1d be 0c 2d 2d bd f6 77 c7 bd f2 e3 78 3c
       -0.15372403 -0.04227929 -0.097396776 0.015191065
000040 25 a9 66 bd 87 2b 1d 3e 38 46 01 3d cb 9f 2c bb
       -0.056313653 0.15348636 0.031561106 -0.0026340361
000050 00 a6 cf 3c cd 30 a1 3d 34 21 99 bd 38 c0 26 bc
       0.02534771 0.07870636 -0.07477036 -0.010177664
000060 84 14 91 bd 80 fd cf bc f0 25 d3 bc 31 21 11 bd
       -0.07083991 -0.025389433 -0.025774926 -0.035432044
000070 e5 c7 bb 3c 65 0c 3b 3d 97 ff a2 bd ad 5c 8e bd
       0.022922466 0.045666117 -0.07958906 -0.0695127
000080 80 8c 5c bd dd a7 bb bb da f3 84 3c 68 01 3e 3c
       -0.05384493 -0.005726798 0.016229559 0.011597015
000090 4a c7 a0 bc 0d 80 c7 bd 8f 68 91 bd 5e 9a 49 bb
       -0.019626278 -0.097412206 -0.07100021 -0.0030762176
0000a0 b4 07 f3 bd b3 6f 0a be ca 19 db bc 5f 85 b4 bd
       -0.11866704 -0.13519172 -0.026745696 -0.08814501
0000b0 c1 56 2b bd ee 32 fb ba fa f4 3b 3d 4d a3 55 3c
       -0.04183078 -0.0019164959 0.045887925 0.013039422
0000c0 b2 3f fa 3b ba 8e c9 3c c7 91 68 bd 63 3c 42 bd
       0.0076369876 0.02460419 -0.05677965 -0.04742087
0000d0 01 70 21 bd ec eb 8c bd f2 6a 91 bd 8e 57 fe bb
       -0.039413456 -0.06880936 -0.07100476 -0.007761902
0000e0 e2 fb 49 3d 44 9e 2b bc 25 5c 46 3d f5 15 a2 3d
       0.04931248 -0.010474745 0.04842772 0.07914344
0000f0 64 8c de 3c 81 f6 94 3d d8 aa 8a bd e5 af 19 bd
       0.027166553 0.072735794 -0.06770867 -0.03752126
000100 ff 81 05 bd 36 e5 34 bd 93 b3 90 bd e9 b2 df bd
       -0.032594677 -0.044163905 -0.07065501 -0.10922796
000110 c6 56 dd 3c 6b 04 55 bd f9 1e db bd 62 3d 78 3d
       0.027018916 -0.052006166 -0.10699267 0.060605414
000120 63 64 a3 3d 6e ce bd bc cb 76 45 3c 03 a8 e1 bc
       0.079781316 -0.023169722 0.012052248 -0.027545935
000130 39 2b 21 bd 24 ec a5 bd bb d8 2f bd d5 8a 50 bc
       -0.03934786 -0.08101681 -0.0429313 -0.012728413
000140 38 ec 45 bd 1d e4 6d bd 1a de 25 3b b7 94 63 3c
       -0.04832098 -0.058078874 0.0025309385 0.013890437
000150 7c 15 a1 3d a6 15 c5 bd 9b 40 c9 3c 43 5a ed 3c
       0.07865426 -0.0962327 0.02456694 0.028973704
000160 c7 00 a9 bc 42 7e 20 bd b0 b3 2e bd 4d fd c6 bd
       -0.020630253 -0.03918291 -0.042651832 -0.09716282
000170 ca 3b c0 3a a9 6d 02 be 7f 13 90 ba 9b 93 fd bc
       0.0014666256 -0.12737145 -0.0010992138 -0.030954173
000180 d6 dd 7e 3d fa f1 71 bc b6 a4 13 be 6f 45 6f bd
       0.062223278 -0.014767164 -0.14418301 -0.058415826
000190 90 f7 d4 3d 56 0d 1b be 42 b0 30 3d b2 8e 61 3a
       0.10398781 -0.15141806 0.043136843 0.0008604332
0001a0 ea 7c 31 be 6f 98 6b bd cf f7 20 3d 13 49 0e 3e
       -0.17332807 -0.05751842 0.03929883 0.13895063
0001b0 c4 24 4e bd c8 a1 44 bd c2 85 f2 bc aa 51 89 bd
       -0.05032803 -0.04800585 -0.029604796 -0.06705029
0001c0 68 ae dd bc c2 4a d6 bd 32 24 cd bd 44 a9 c4 bd
       -0.027060702 -0.10463478 -0.10016669 -0.09602597
0001d0 0d d0 7d 3d 8e b6 2d bd b1 e3 87 bd a4 bf e2 bc
       0.06196599 -0.042410426 -0.066352256 -0.027679272
0001e0 a4 50 00 3d 9f ce 11 be ee fe f0 3c 74 e5 a6 3c
       0.031326905 -0.14238976 0.029418435 0.020373084
0001f0 52 97 9d 3d 65 c6 f1 bd d0 b0 ab bd d0 34 b7 bd
       0.07694878 -0.11805419 -0.08383334 -0.0894562
000200 b2 e6 a1 bd 06 ec c2 bd 1e 36 d6 bc fe 0c 6d 3c
       -0.0790533 -0.09517674 -0.026148852 0.01446843
000210 33 ff 05 3d a1 69 1f 3d 7e 02 b9 3b 6a 3b 53 3d
       0.03271408 0.038919095 0.005646049 0.051570334
000220 4c ac a6 bb 2b 14 b1 bd 64 e4 a9 bd ba f6 8f bd
       -0.0050864574 -0.08646425 -0.08295515 -0.07029481
000230 c3 57 46 bd 36 26 82 bc e3 b5 df 3b 20 cd b9 bd
       -0.04842354 -0.015887361 0.0068271025 -0.090723276
000240 2d 10 83 bd 2d 18 18 3e f9 2c cb bd 8f cc 5d 3d
       -0.0639957 0.14852972 -0.09920687 0.05415016
000250 d1 cd 8a 3d 27 f6 f9 bd 3e b9 c4 bd 16 42 f9 3c
       0.067775376 -0.12205153 -0.09605645 0.03042702
000260 2d 61 69 be 25 26 76 3d d6 a4 7a bc 24 12 4f 3d
       -0.22790976 0.06009497 -0.015298089 0.05055441
000270 1f d4 c3 bd 03 da 95 bd 55 b2 6d bc 7a 2e 46 bc
       -0.09561943 -0.07316973 -0.01450785 -0.012096042
000280 6a 1d ab 3b 1a 22 e1 bc b4 f9 83 bd 74 90 cd 3c
       0.0052220123 -0.027482081 -0.064441115 0.025093295
000290 00 74 15 3d 89 2c e5 3d b4 e3 9a 3d 84 56 f3 bd
       0.03648758 0.11190135 0.07562962 -0.11881736
0002a0 04 18 de 3c b0 43 ce 3b 5c 4a bd bc 53 04 26 be
       0.02711106 0.00629469 -0.023106746 -0.16212587
0002b0 e1 83 f0 3d a9 59 83 bd 8c 02 3e be 9c ab b9 3d
       0.11743904 -0.06413586 -0.18555659 0.09065935
0002c0 dc 0c 2e be 34 4a 7d bd 70 53 d4 bd e5 76 fe bd
       -0.16997093 -0.061838344 -0.10367477 -0.12425021
0002d0 93 bc 2e be 68 c5 30 3e ad db bb bd 73 91 44 3d
       -0.17064123 0.17262805 -0.09172759 0.047990274
0002e0 26 b1 45 3c d4 aa 51 3c 36 73 3f bd 48 08 25 be
       0.012066161 0.012797076 -0.046740733 -0.1611644
0002f0 16 82 b1 bd c2 26 bc bd 90 55 89 3d 6a 61 32 be
       -0.0866739 -0.0918708 0.06705773 -0.17419973
000300 e1 4f 53 bd 56 d8 cd 3c 30 2b fb bc 8b 72 21 3d
       -0.05158985 0.025127571 -0.030660242 0.039415877
000310 27 1c 4f 3d c7 cc af 3d 1c 6b c0 3c 7c c9 c8 bd
       0.050563958 0.0858398 0.023488574 -0.09804055
000320 90 93 81 bd 6e 40 27 3d 84 45 98 bc 66 7f cf bb
       -0.063269734 0.04083293 -0.018587835 -0.0063323257
000330 8b 70 fb bc 22 2f f1 3d 0d 6c 94 3c f9 ee 85 3b
       -0.030693313 0.11776568 0.018117929 0.0040873257
000340 03 54 d5 bd 49 e6 ed 3c dd 7f 57 3d 72 48 73 3d
       -0.104164146 0.029040473 0.052612174 0.05939526
000350 72 26 59 bd 02 97 4a 3d c8 14 d2 3d b6 e8 6e bd
       -0.05301518 0.04946042 0.1025787 -0.0583274
000360 2a 31 d3 3c 81 fc d6 bd f9 fb 70 3d 7e c0 f0 bd
       0.02578028 -0.1049738 0.05883405 -0.11755465
000370 c8 dd f6 3c e9 db f0 3c f1 2b f4 bd 89 8c e2 bd
       0.03013505 0.029401736 -0.11922444 -0.11061961
000380 63 07 54 3d bb 5e 28 bd 61 cc f9 bd 0d c5 5f 3e
       0.051764857 -0.041105967 -0.12197185 0.21852513
000390 bb 48 78 bd 93 be 4b be 7a b1 83 3d 89 38 b7 ba
       -0.060616236 -0.19896917 0.06430335 -0.0013978641
0003a0 42 41 b2 bd 29 43 20 3d 60 09 20 bd dc c7 fd bc
       -0.08703853 0.03912655 -0.03907144 -0.03097909
0003b0 24 59 35 3d f3 ff b5 bd 7b d7 c4 3d c8 37 49 3e
       0.044274464 -0.08886709 0.09611412 0.19650185
0003c0 62 bc ee bd 69 62 d5 bd 17 88 25 3d 8f 26 4f be
       -0.11657025 -0.10419161 0.04041299 -0.20229553
0003d0 56 9d c8 3e ae 2e 07 be dc a6 07 3e c0 00 e8 bd
       0.39182538 -0.132014 0.13247246 -0.11328268
0003e0 f4 87 76 bc c5 a1 cb 3c c9 b2 66 bd a5 94 48 be
       -0.015047062 0.024857411 -0.056322847 -0.19587953
0003f0 ea 3f 80 be 19 65 50 3e 1a da 55 3d 25 8e d0 3c
       -0.25048763 0.20351066 0.05220995 0.025458405

bias f4 [32]
000000 72 12 ec b8 ed 46 15 3d 46 52 8b bd b8 26 e9 bb
       -0.00011256793 0.036444593 -0.06802802 -0.0071152113
000010 51 ad 7a bd d6 82 a2 bd 17 0a 84 bd d8 66 ab ba
       -0.061200444 -0.07935111 -0.06447237 -0.0013076914
000020 a5 11 97 bd bf 5e 07 3d 7f 5f 0b bc 56 f1 f4 bd
       -0.07376412 0.03304934 -0.008506655 -0.11960094
000030 fb df 4c bd 48 56 34 be 1a 87 94 bd cb a6 3c bd
       -0.050018292 -0.17611039 -0.07252331 -0.046057504
000040 5a 2f 92 bd 57 5d f0 bb d4 fd c0 bd bb 0f ce 3d
       -0.07137938 -0.0073353457 -0.09423414 0.10061594
000050 11 e0 9e bd 8e 3a 58 3c 84 23 81 bd ed 6c 21 bd
       -0.07757581 0.013197554 -0.06305602 -0.03941052
000060 87 cd 90 3c 24 12 27 bd c2 43 cc ba 84 78 11 be
       0.017676128 -0.040788785 -0.0015584158 -0.1420613
000070 58 ee 08 3d 0a 5d a8 bd c9 c3 ea 3c 58 fd 0c be
       0.033430427 -0.08220871 0.02865781 -0.13768518

weight f4 [96, 192]
000000 1e b0 4c 3d 53 fa 41 3d f4 96 b6 3d ae 11 82 3d
       0.049972646 0.04735787 0.08915511 0.063510284
000010 1b b1 e6 3c 00 d8 1f 39 c4 15 94 ba f4 81 6a bc
       0.028160622 0.00015243888 -0.001129799 -0.01431321
000020 7b 04 63 bc 98 79 a8 bd b1 f9 fb 3c 6a 81 f5 bc
       -0.013856049 -0.08226317 0.03075871 -0.029968936
000030 bd 68 49 3d ec d2 0e 3e a4 70 ba 3c 11 12 24 bd
       0.04917215 0.13947648 0.02275879 -0.040056292
000040 e2 1f 81 bd d2 46 31 3d bf a7 86 bd 92 19 a2 bd
       -0.06304909 0.04328043 -0.06574964 -0.079150334
000050 8d b3 a1 3c 07 cb ef 3d 7e 9b 4f bc 14 71 8b bd
       0.019738937 0.11708646 -0.01267135 -0.06808677
000060 0b 9a 5e bd 08 ef fc bd b7 67 ec bd 70 03 08 3e
       -0.054346126 -0.12350279 -0.115432195 0.13282561
000070 e5 6f e7 3d c1 63 d3 bd 01 73 81 bd e3 f8 9e bd
       0.11300639 -0.10321761 -0.063207634 -0.07762315
000080 f2 3e aa bd f8 5a b4 bc a2 be 06 be 82 54 b3 bd
       -0.08312787 -0.022016034 -0.13158658 -0.08756353
000090 85 6d 1f bd a7 41 26 3d a0 3c ad 3d c8 f9 fb 3d
       -0.038922805 0.040589955 0.08458829 0.12303501
0000a0 c5 f4 03 bd 2c 64 3d bd 1f 7e 87 bd 82 95 62 bb
       -0.032215852 -0.04623811 -0.066158526 -0.0034573977
0000b0 06 5c ca 3b db 84 a2 bd d4 aa 9c bd 3c 5c 41 bc
       0.006175521 -0.079354964 -0.076497704 -0.011801776
0000c0 ac 26 b6 3d c4 92 58 bd 1b e8 47 bc e3 f9 49 3d
       0.08894095 -0.05287434 -0.012201334 0.049310576
0000d0 06 e6 1d 3d 2a 10 2f bd b0 73 8f 3d dd 16 87 3b
       0.038549446 -0.042740025 0.070044875 0.0041225986
0000e0 80 59 41 3e ce 59 cc bd 4a 0a cb bd 87 28 e2 3b
       0.18881798 -0.099780664 -0.09914072 0.006901804
0000f0 3a de 5d 3e 1a 04 53 3e 8c 34 50 be 2c 0b 4b 3e
       0.21666804 0.20607033 -0.20332545 0.1982848
000100 e6 19 44 bd de 30 07 bd 7d 84 10 3d b1 5e e7 3b
       -0.04787626 -0.033005588 0.0352826 0.0070608486
000110 1c 8d e6 3c 3a 7c f1 3d 22 6c 0c bd 3a e2 87 3c
       0.028143458 0.117912725 -0.03428281 0.016587365
000120 41 8c 33 bd fa 56 2b bc ed 0a 80 3d a6 8e 4d bd
       -0.04383493 -0.010457749 0.06252084 -0.05018487
000130 31 85 46 3c b1 b1 4a 3d 5b c6 09 bd ea b5 97 bd
       0.012116716 0.049485866 -0.033636432 -0.07407744
000140 7a 40 05 be 35 4d f2 bd 9a 29 ba bd fa bb 86 bd
       -0.13012877 -0.11831132 -0.09089966 -0.065788224
000150 fc 9d da bc b8 8a 47 3d b5 1e 81 bd 19 b2 2b 3d
       -0.026686661 0.048716277 -0.06304685 0.041917894
000160 f0 da ed bc 35 bb 1f 3d 2e 5d 23 bd 62 c0 87 bd
       -0.029035062 0.038996894 -0.039883785 -0.06628491
000170 03 8d 6b 3d 1f 67 d7 bd 88 e2 98 3a 3e b1 85 bd
       0.057507526 -0.10517716 0.0011664191 -0.06527947
000180 60 34 98 3d c8 b6 bd bc ab 05 4c 3d 6a 81 02 3d
       0.07431865 -0.023158446 0.049810093 0.0318617
000190 d1 77 89 3c ae b9 49 bc a9 8c 0d 3c e7 85 04 bd
       0.016780766 -0.012312336 0.008639493 -0.03235426
0001a0 13 18 8e 3b 06 2c cc 3c 8e aa b3 3a 1f 51 24 3d
       0.004336366 0.024923336 0.0013707445 0.040116426
0001b0 96 95 a4 bd 6f d2 97 bc cc 02 fa 3c 46 9a d8 3c
       -0.08036344 -0.01853296 0.030518912 0.02644075
0001c0 58 23 a9 bc b0 3c 18 bd 93 d5 b5 3d b4 00 a4 3c
       -0.020646736 -0.03716725 0.08878627 0.020019867
0001d0 5b a8 ad bc 63 e3 b3 bd f9 84 9a bd d7 8b 19 3c
       -0.021198442 -0.08783605 -0.07544894 0.009371719
0001e0 d5 3e eb 3c 6f c8 3b bd 9c fe ff 3d 16 78 13 3d
       0.028716484 -0.045845445 0.12499735 0.036003195
0001f0 e4 04 a3 3c d4 36 13 3d b8 64 70 bc 5b c9 d2 bd
       0.019899793 0.03594096 -0.014672451 -0.10292312
000200 fb 9d 24 bc f1 f3 01 3d c6 71 03 3d ed b4 fa bd
       -0.010047431 0.03172678 0.032090925 -0.1224154
000210 2b 99 2e 3e ab 2a 88 bc 09 6c 60 bd 1a ea 95 3b
       0.17050616 -0.016621908 -0.05479053 0.004575026
000220 d8 01 25 bc 0d 17 30 3d 80 59 30 3d b2 b2 12 bd
       -0.01007124 0.042990733 0.043054104 -0.03581495
000230 f9 52 d0 bc 7c 39 18 3e bd 62 23 3e b2 bf 47 bd
       -0.02543019 0.14865679 0.15955634 -0.0487668
000240 93 b0 90 3d 2c b9 35 3c 36 22 95 bd f3 fc f0 bb
       0.07064929 0.011091512 -0.07281916 -0.0073543726
000250 e1 2a 10 bd 51 f2 69 bd 7f 66 ba 3d d1 f8 e0 3d
       -0.035197143 -0.057115857 0.09101581 0.10984958
000260 b4 44 a9 3d 13 a4 9a bd d9 47 ec bd 74 47 83 bd
       0.08265057 -0.07550826 -0.11537141 -0.06410113
000270 ec df 64 bd 3b 80 80 bd 5a 0f 45 3d 9b 33 f1 3d
       -0.05587761 -0.06274458 0.048110344 0.11777421
000280 89 68 88 3d 06 e5 68 3d 85 c1 d2 bc d3 63 01 be
       0.066605635 0.05685904 -0.025727043 -0.12635736
000290 dc c5 38 bd 26 e1 f4 3d bd d5 bb bd ad 61 69 bd
       -0.04511057 0.11957006 -0.09171627 -0.056977917
0002a0 57 04 17 3d d3 fb e6 3d f7 6e 94 3d 21 a9 cc 3d
       0.036869373 0.112785004 0.07247727 0.09993196
0002b0 a9 89 7e 3d fc eb bd 3c 34 4b 42 bd a3 0b 93 bc
       0.062143 0.023183815 -0.047435 -0.017949885
0002c0 dd 99 2c 3d 0f c5 cd 3c e5 f1 96 bd c6 f3 76 3c
       0.042138923 0.025118379 -0.073703565 0.015072769
0002d0 51 00 cc bc 4c 96 0a be 21 81 f3 bd 67 de 64 3e
       -0.024902495 -0.13533896 -0.11889864 0.22350465
0002e0 6c c1 3d 3d 41 d1 63 3d 8a 10 84 bc 6c 92 98 bd
       0.04632704 0.055619482 -0.016121168 -0.07449803
0002f0 ec 81 67 3c fc ca 40 3d 0e 65 83 3d 62 b2 c3 bc
       0.014130097 0.04706858 0.06415759 -0.02388877
000300 0e e8 86 bd 60 02 97 bb db 27 9b bc a6 d5 2b 3d
       -0.0658723 -0.0046084374 -0.018939903 0.041951798
000310 0e 22 87 3d 18 c7 08 3c db 4d 38 bd 9c e7 e8 bc
       0.06598292 0.008348249 -0.044996124 -0.028430752
000320 a7 52 56 bd 1e 7f 20 3c ab 54 2a 3d 29 ba 32 3d
       -0.052324917 0.009795932 0.041584652 0.043634567
000330 97 20 6e bc 43 4b db bc 32 1e 0b bd 9e 4a 18 bd
       -0.014534137 -0.026769286 -0.033964343 -0.037180535
000340 22 43 67 3d 52 55 36 bb 3a 54 5c bc ce d4 72 3d
       0.056460507 -0.002782185 -0.013447816 0.059284978
000350 49 33 6e 3d b4 79 ae bc 07 35 2f 3d 4c d5 63 bd
       0.058154378 -0.021298267 0.04277518 -0.055623338
000360 eb c3 a2 bc cc 27 4a bd dd 0e 4e bc aa ec b4 3b
       -0.019868812 -0.04935436 -0.012576786 0.0055213766
000370 be 75 88 bd c4 93 48 bd e9 25 5a 3c 48 b5 5a bc
       -0.066630825 -0.048969045 0.013314703 -0.013348885
000380 da ed ec bd 42 0c 55 3c 8b 5f 0b 3d ac 4d 1d 3d
       -0.11568804 0.013003411 0.034026664 0.03840415
000390 45 17 ab 3d 29 fa 37 bd 99 ee 28 bc 91 fd d5 bd
       0.08354048 -0.044916306 -0.010310792 -0.104487546
0003a0 9d 71 6c 3c 07 4b aa 3b ac a4 f3 bc 24 4d 31 bd
       0.014431384 0.0051969322 -0.029741608 -0.043286458
0003b0 18 3c 0f 3c 88 33 86 bd 29 1c ab bc b5 a9 39 3b
       0.008742355 -0.065527976 -0.020887451 0.0028329913
0003c0 25 0f b4 3d 6c 12 b4 3c ee 48 52 3b 3c 27 7c 3c
       0.08791951 0.02198144 0.0032086927 0.015390214
0003d0 74 0e 1d 3d 85 d7 9a 3c f7 f4 76 3b d5 c0 15 bd
       0.03834386 0.018901596 0.0037682632 -0.036560852
0003e0 7e c2 d4 3c ea be 63 3c 50 31 a3 bc 0e a6 1b bd
       0.025971647 0.013900498 -0.019920975 -0.03800016
0003f0 11 14 8e bc d0 f0 06 bc 18 55 2d bc 79 4d 41 bd
       -0.017343553 -0.008236125 -0.01057937 -0.047193024

bias f4 [96]
000000 df 82 a1 bd ea e2 5e bc d8 04 69 3c f3 b4 56 bc
       -0.0788629 -0.013603905 0.014222346 -0.013104665
000010 99 65 a1 3d 28 7c 50 bd 6f 8d 15 bd be 03 b2 3d
       0.07880706 -0.050899655 -0.036511835 0.0869212
000020 fd c0 0b 3d bf 9a fd 3c 32 56 d7 3c 67 6d ec 37
       0.034119595 0.030957578 0.026286218 2.8184337e-05
000030 1f 61 78 bc 5a 1e ce bd fa 62 46 3c e2 6e ba bc
       -0.015159874 -0.10064383 0.012108559 -0.022757951
000040 aa 92 a0 3d e0 84 7d bd 5b 59 b8 bb 8d 44 84 bd
       0.07840474 -0.061894298 -0.0056258864 -0.064583875
000050 a9 20 d0 bd ae 69 b1 bc e6 82 5b 3b 87 c9 0f 3d
       -0.101624794 -0.021656837 0.003349477 0.0351043
000060 b4 44 83 bc d4 cd b0 bd 15 74 3a 3d a9 8f 94 bd
       -0.016023971 -0.086330086 0.04552086 -0.072539635
000070 6b 08 16 bd 10 47 06 bd a5 b4 d8 bd a7 c0 1d bc
       -0.03662912 -0.032782614 -0.1058133 -0.009628451
000080 02 d6 33 bd 3d 34 aa 3c e9 4f aa bd 25 a0 f6 3c
       -0.043905266 0.020776862 -0.08316023 0.03010566
000090 b5 6a 0d bd 6d a0 1b be f5 e3 4f 3d 8d 40 55 bd
       -0.034525592 -0.15197916 0.050754506 -0.052063514
0000a0 fc cd d5 3c 81 19 cb 3c 14 a8 8b bd b8 8d 3d 3d
       0.026099198 0.024792435 -0.06819168 0.04627773
0000b0 3e 09 88 bb 2e 58 bd bd 8d 24 06 bb b9 b9 81 3d
       -0.0041514924 -0.092453346 -0.0020468563 0.06334252
0000c0 2a cc 15 3d fd 45 a8 3d f3 bf 54 3d 28 26 39 bd
       0.03657166 0.08216474 0.05194087 -0.045202404
0000d0 05 ca ab bb ea 57 4a 3c dc 3f bb 3b 0a de 51 bd
       -0.0052425885 0.012350062 0.0057143997 -0.051237144
0000e0 b9 b0 95 3c 17 ff 09 3e 54 90 92 bd 29 f0 9f bc
       0.018272744 0.13476215 -0.07156435 -0.019523697
0000f0 89 57 61 bd 20 b8 dc bc 6b 1a 2c bd 5d fb 0b 3d
       -0.05501512 -0.026943266 -0.04201738 0.034175266
000100 76 70 48 bd e0 0f 55 bd 15 aa 00 3d 8d fc 58 bd
       -0.048935376 -0.052017093 0.031412203 -0.052975226
000110 2c ff 9b bd 70 40 9b bd f3 7c 4f ba 3c b9 5e bd
       -0.076170295 -0.0758065 -0.0007915042 -0.054375872
000120 2d e5 c8 bd d4 8c af bc dc 2f 87 3c 14 5b 94 3d
       -0.09809337 -0.021429457 0.016502313 0.07243934
000130 e5 21 c8 bc e3 5b 6a 3d ba 2b 94 3c e6 20 4f 3c
       -0.024430225 0.057216536 0.018087257 0.012642121
000140 2d 4e 51 3c 47 ed 4d bd 37 c7 5c bc de 11 a6 bd
       0.012774986 -0.050275113 -0.013475231 -0.08108877
000150 90 ad c4 bd 70 f2 56 3d 90 35 92 bb 81 92 b5 bc
       -0.09603417 0.0524773 -0.0044619516 -0.022164585
000160 80 0a 0d bd d8 a4 8f 3c 59 bc 8b bd 62 ed 88 3c
       -0.03443384 0.017534658 -0.06823034 0.016714755
000170 3d b7 c8 3c 48 b8 b3 b7 05 25 31 bd 73 1b cf 3d
       0.024501437 -2.1424275e-05 -0.043248195 0.101126574

weight f4 [48, 96]
000000 45 85 f5 3d da 2c 89 bd a6 b9 09 3e a3 b3 bc 3c
       0.1198831 -0.06698008 0.13449726 0.023034876
000010 e7 56 7d bc dc a2 18 3e 69 fa 10 bc 57 1c f7 bc
       -0.015462614 0.14905876 -0.008848765 -0.03016488
000020 a1 3f d7 3d c7 4f bf bd d3 0a 34 be 3d 2b 00 3e
       0.10510183 -0.09341388 -0.17582254 0.12516494
000030 62 ee 1a bd 9d b1 00 bc a1 73 ba 3d 9a e5 1c 3e
       -0.037824996 -0.007854846 0.09104086 0.15321961
000040 0c 53 c8 bd 58 42 88 3d ff 7e 75 3d 10 20 7e 3d
       -0.09781465 0.06653279 0.059935566 0.062042296
000050 40 6b 5c 3d f0 d5 95 bd f3 40 3b 3c 0c 30 c4 3d
       0.05381322 -0.07316196 0.011429059 0.09579477
000060 29 a8 5d bc 6b d8 87 3c 7d fd 88 3d be 3d 15 3e
       -0.013528862 0.016582688 0.06688974 0.14574334
000070 2f ca 7f 3d b8 c5 ac 3d c6 9c 1a bd 57 d0 0b 3e
       0.062448677 0.08436149 -0.037747167 0.13653694
000080 94 c5 a6 3d a9 23 25 3b 2a 55 62 bd cc 4d 0e 3d
       0.08143154 0.0025198257 -0.055257 0.03474216
000090 63 61 ad bd 6e d7 45 bd f6 3f 0c be 99 7c 82 bd
       -0.08465841 -0.048301153 -0.13696274 -0.06371421
0000a0 dc 05 19 be 59 16 26 3d 2a 19 21 bd 18 72 a5 bd
       -0.14943641 0.040548656 -0.03933064 -0.08078402
0000b0 0c 8e 8d 3d f8 16 7e bd 99 d3 cc bd 95 22 e0 3d
       0.06911859 -0.062033623 -0.100012966 0.10944096
0000c0 8c 5e d9 3d 3e 3d ae bc ec c2 41 3d ab 72 9e bd
       0.106137365 -0.021269437 0.047305033 -0.07736715
0000d0 5a 4e ed ba 00 c5 b1 bd 57 16 4e bc 8c be 85 3d
       -0.0018105016 -0.08680153 -0.012578568 0.065304846
0000e0 ee 46 19 bd 25 ee 96 bd 61 57 41 3e 5d 71 90 3b
       -0.03742116 -0.07369641 0.18880989 0.004408045
0000f0 ea 33 88 3b 8e 5b f6 3d 55 5a 76 bb 1d 89 12 be
       0.0041565793 0.120291814 -0.0037590463 -0.14310117
000100 4f 98 b2 3c 9f f1 b3 bd cd 8e ce 3d 20 a6 45 3e
       0.021801142 -0.0878632 0.10085831 0.19301653
000110 f7 ef 6a bd 47 65 ca 3c d5 9d 7a 3d 61 c9 6d bd
       -0.057357755 0.024706496 0.061185677 -0.058053378
000120 8f e6 e1 3c ec 75 9e 3d a8 34 83 bd 00 33 c7 bc
       0.02757576 0.077373356 -0.06406528 -0.02431631
000130 36 09 35 bc b4 6f 2d 3e ea 31 83 bd 4c 36 21 3d
       -0.011049559 0.16937143 -0.06406005 0.039358422
000140 0b a0 bc bc dd 81 53 3d 4a b6 ac bd 6f d8 3d 3e
       -0.023025533 0.05163752 -0.084332064 0.18539594
000150 fa 57 86 bd 5d 60 1b 3c 47 e2 89 3d d3 4f 86 bd
       -0.06559749 0.009483424 0.06732612 -0.06558194
000160 75 04 0d bb f4 cb 09 bd 9e 4d 55 3d 2e 86 84 bc
       -0.002151755 -0.03364177 0.052075975 -0.016177263
000170 d6 e2 35 3d ca d9 c8 bc 1d dd 93 3d 17 3f 86 3d
       0.04440578 -0.024517912 0.072199084 0.06555002
000180 da 42 10 bd c6 44 0a 3e bb e9 ef bd 93 03 e7 3d
       -0.035220005 0.13502797 -0.117145024 0.112799786
000190 69 47 1e be 2b 4c 03 be b7 de b6 3d 8c 18 bf bd
       -0.15456928 -0.12822025 0.08929198 -0.09330854
0001a0 b6 0a 2c 3c b4 dc 8d 3d 9f 85 57 3d 85 37 a2 3d
       0.010500601 0.069268614 0.052617665 0.07920746
0001b0 be 27 ba bd fa 26 83 bd 58 35 2a bc 0d 4f 07 be
       -0.090896115 -0.064039186 -0.010388695 -0.13213749
0001c0 78 97 ad bc 98 c5 9f 3c 88 e3 8c 3d a4 de ac bc
       -0.02119039 0.0195034 0.06879336 -0.021102257
0001d0 e2 2c 58 bd 90 56 52 3d 33 74 73 bd bf 19 c7 bd
       -0.05277718 0.051352084 -0.059436988 -0.097217076
0001e0 a3 81 14 3e 3f c4 e7 bd b1 07 ab 3b e3 09 84 3d
       0.14502577 -0.11316728 0.0052194227 0.06447198
0001f0 12 23 ad 3d ca 67 25 3d 3f 44 53 3e 6b 5a 82 3d
       0.08453955 0.040382184 0.20631503 0.06364902
000200 6a a7 d4 bc f9 7f 3a 3e bf 1d 45 3d 19 8b 34 bd
       -0.025958735 0.1821288 0.04812407 -0.044077966
000210 98 03 91 3c 24 04 4f 3e 75 59 97 bc d6 4e 60 bd
       0.017701909 0.20216423 -0.018475274 -0.054762684
000220 63 05 f5 3d 26 f1 16 bd 49 10 f2 bc dd 4a 5f 3c
       0.11963918 -0.03685107 -0.029548781 0.013628689
000230 04 39 1e bc ce 9e ac 3d 58 da 53 bd da f3 1b bd
       -0.009657148 0.08428727 -0.0517219 -0.03807435
000240 e5 f1 27 3b 03 ed 95 3b c9 27 0c be 8e 3a 00 bd
       0.0025626358 0.004575373 -0.13687052 -0.031305842
000250 09 6e d5 3d 63 31 b0 3d f2 ea ac 3d a0 58 b6 bc
       0.10421378 0.0860317 0.0844325 -0.022259057
000260 8b e7 88 3d 3f e9 ad bd c1 dd 44 bc 76 a1 69 bd
       0.06684788 -0.08491754 -0.012015761 -0.057038747
000270 b0 d7 de 3c 4e c8 8f 3d ae fb 3d 3c 8c 33 85 bc
       0.027202457 0.07020627 0.01159565 -0.016259931
000280 d6 a8 2c bd f8 df d7 bc 30 b3 98 bd 9a 6f e7 3c
       -0.042153202 -0.026351914 -0.07456052 0.028251458
000290 61 8f a7 bd 7f 58 ec bc ab 98 b9 3d db ae 8c 3e
       -0.08181644 -0.028850792 0.09062322 0.27477154
0002a0 04 45 c3 3d c3 25 05 bd 8c 0a 95 bd ce cc d5 bc
       0.09534648 -0.032506716 -0.07277402 -0.026098635
0002b0 de 75 13 3d 70 10 a9 bd 1b 82 d7 3d 78 d9 9d bd
       0.03600108 -0.08255088 0.105228625 -0.077074945
0002c0 94 96 0e 3d b2 4a a1 bd 11 ab 91 3d 83 b8 9e bd
       0.03481157 -0.07875575 0.071127065 -0.077500366
0002d0 fa c2 e9 bd 1d f2 19 bd 59 ab 39 3d 3f a6 d0 3c
       -0.11414142 -0.037584413 0.045329425 0.025469897
0002e0 9c d2 a9 3d 31 c6 8d 3d 45 05 11 bd 9a 05 cd bd
       0.08292124 0.06922568 -0.035405416 -0.10010834
0002f0 46 ae f0 bd af 58 de 3d b2 c1 33 3c 10 c7 f8 bc
       -0.1175199 0.10856759 0.0109714735 -0.030368358
000300 36 84 d3 3b 95 7f 6d 3d 66 1c 27 be 33 48 9b bd
       0.0064549698 0.057983 -0.16319427 -0.0758213
000310 16 9b c0 bd d6 52 16 3d f0 dd af 3c fb ef 13 bd
       -0.0940458 0.036700092 0.021468133 -0.036117535
000320 21 70 f6 bd 62 6c 03 bd 5e a3 07 3e 77 db 5c 3d
       -0.12033106 -0.032085784 0.13245913 0.053920235
000330 1c 58 97 3d 03 f9 83 3d c9 a7 52 3d 1c d7 ca bd
       0.073898524 0.064439796 0.051429544 -0.0990431
000340 77 7c 36 bd d5 a4 bd 3c fe ce 10 bb 84 89 0d bc
       -0.044552293 0.023149887 -0.0022096033 -0.008638743
000350 d7 94 d3 3d 5b c8 a2 bd 1d 71 97 bb 64 e7 e8 3d
       0.10331123 -0.07948371 -0.0046216385 0.11372259
000360 9d d0 09 3d 24 d6 90 3d e4 5c 6c 3d b4 0b 77 bc
       0.033646215 0.07072094 0.057705775 -0.015078474
000370 75 08 d1 bd ee 76 9a 3d b4 59 b9 3d f0 ef b1 bd
       -0.10206691 0.07542215 0.09050313 -0.086883426
000380 b5 25 71 3d 38 1c 24 3e b2 b4 8c bd 3d 2c b3 3d
       0.05887385 0.1602639 -0.068704024 0.08748672
000390 af 48 59 3d a8 ef 8b 3d e8 fb a6 3d 17 03 08 bc
       0.053047832 0.0683282 0.08153516 -0.008301518
0003a0 e6 04 25 3e 6f 91 d8 bb 10 6f f5 bd ea 4c 67 3d
       0.1611515 -0.006609134 -0.11984074 0.056469835
0003b0 fd 19 50 3b a5 44 20 3d 62 9f c5 3d f6 de f3 3c
       0.0031753771 0.039127965 0.096495405 0.029769402
0003c0 e4 65 99 3d d5 fc f7 3c f7 2d 46 bb 8d ca 5c 3d
       0.07490137 0.030271927 -0.00302398 0.053904105
0003d0 8c 8c 1e bd 9d 65 9f bb 9e f0 93 3d fc 78 56 bd
       -0.038708255 -0.004864408 0.072236285 -0.052361473
0003e0 af c2 b7 3d 63 cf bb bc 83 cf 82 3d b3 d9 13 bd
       0.0897268 -0.022926038 0.06387236 -0.036096286
0003f0 0a cd 2d 3d a1 82 5e bd fb be 31 bc 62 00 68 bd
       0.04243187 -0.054323796 -0.010848756 -0.05664099

bias f4 [48]
000000 4b cb a8 3c 7b 74 53 bc 7d aa 82 bd 4f 4c 9f 3c
       0.02060475 -0.012906189 -0.06380174 0.019445566
000010 de 82 c0 bc af d7 8d 3d 37 67 0a 3e 39 f6 0a be
       -0.023499902 0.06925904 0.13515936 -0.13570489
000020 c2 f8 ca bd a3 76 9e bc 1f ba e4 3c 3b b6 b2 3d
       -0.09910728 -0.01934368 0.02792078 0.08726164
000030 47 90 b1 3c b6 fb a0 ba ab 56 e4 bc e6 eb 8b bb
       0.021675242 -0.0012282047 -0.027873358 -0.0042700646
000040 c9 e4 27 3c ec 5a 0b 3e 84 68 4b 3d d7 81 cd bd
       0.010247418 0.13608903 0.04966022 -0.100345306
000050 cc c3 34 3d 36 1d 59 bc a5 05 b5 3c 2d 0f 18 bd
       0.04413204 -0.013251593 0.022097418 -0.037123848
000060 86 13 c9 3d 82 6d 90 bd ec d1 fd 3c d5 57 19 bd
       0.09818177 -0.07052137 0.030983888 -0.03743728
000070 9a bd a8 bc 8d 43 56 bd 0d b2 75 bd 65 25 48 3c
       -0.020598222 -0.052310515 -0.059984256 0.012215947
000080 b7 df 24 3d 03 c7 b0 3d 64 2c 07 be 1a 8e be bb
       0.040252414 0.086317085 -0.13200527 -0.0058152797
000090 ea 5b 99 3d f2 42 dd bd 4d 80 d3 3d 5e 17 8e 3d
       0.07488234 -0.108037844 0.10327206 0.06938051
0000a0 56 6c 19 3e e3 55 33 bd 7a 93 b7 3d 44 9a 47 bd
       0.14982733 -0.04378308 0.08963676 -0.048731104
0000b0 13 1a 59 3b e3 e5 8e 3d 06 a0 70 3d 97 c6 2c bd
       0.0033127114 0.06977441 0.05874636 -0.042181578

weight f4 [24, 48]
000000 b4 b1 00 3e b9 e6 e9 3d c3 b6 8c bd 70 87 cc 3c
       0.12567788 0.1142096 -0.068707965 0.024966925
000010 01 89 92 3d ff c6 26 be 39 73 96 3c 30 2d 97 3c
       0.07155038 -0.16286848 0.01836549 0.018454164
000020 47 f8 f8 3c be 52 a2 3d 31 c5 ef 3d bf 5f 07 bd
       0.030391825 0.07925938 0.11707533 -0.033050295
000030 b4 48 e8 bd 55 eb 42 3e 21 41 22 be ea d2 1c be
       -0.11341992 0.19035085 -0.15845157 -0.15314832
000040 a7 db 5b 3d 4f 3a 91 3d 05 7d a7 bd 9e a9 97 3d
       0.053676274 0.070911996 -0.081781425 0.07405399
000050 29 ea 1c 3d 85 e4 80 3d 6e c0 c2 3d 6f 61 0d be
       0.03830925 0.06293587 0.09509359 -0.13806699
000060 2c f4 31 3e 39 d8 67 bd 00 a2 14 3d 01 9e bd 3d
       0.173783 -0.05660269 0.036287308 0.092586525
000070 c7 f4 10 be ad c2 10 3d dc 2d 1f 3e 83 4c e4 bd
       -0.14155875 0.035341907 0.15544838 -0.11147406
000080 45 54 14 3d 1d d0 4e 3d da a5 ee ba 81 16 e9 bc
       0.03621318 0.05049144 -0.0018207387 -0.028453114
000090 17 7a 14 3e 7d 0a 3d 3d ce ae 79 3e ae 1d 00 be
       0.14499699 0.04615258 0.24383089 -0.12511322
0000a0 af 87 26 3d 42 aa 2a 3c 72 8c 9d bd f4 d8 ef 3d
       0.04065674 0.010416569 -0.076928034 0.117113024
0000b0 dd 89 cd bd 6f 66 c1 bd 24 f0 8f 3d 8d 99 ad 3d
       -0.10036061 -0.09443366 0.07028225 0.08476553
0000c0 88 eb 22 bd 87 44 a3 bd 64 08 02 3e 6e 10 cf bd
       -0.0397754 -0.07972055 0.12698513 -0.101105556
0000d0 2d 3b 3e be 20 59 06 be 53 2f ac bd bb 7c 5d 3d
       -0.18577261 -0.13119936 -0.08407464 0.05407403
0000e0 07 2f 3e 3d 52 a2 b1 3e f2 df 83 bc 04 ea 5d 3c
       0.046431568 0.34694153 -0.016097996 0.013544563
0000f0 69 db 95 bd 67 72 77 3e 59 c2 2e be 72 1b 52 bd
       -0.0731724 0.24164735 -0.17066325 -0.051295705
000100 f2 38 44 bd 91 ff 50 3d fa f3 6d be e4 e3 4f 3d
       -0.04790587 0.051024977 -0.23237601 0.050754443
000110 28 de e3 bd 61 78 ac bd 33 3c 58 3d 32 be 19 be
       -0.11126357 -0.08421398 0.052791785 -0.1501396
000120 8a 50 06 bc 23 12 81 bc ce 95 aa bd b2 b3 01 be
       -0.008197913 -0.015755719 -0.08329354 -0.12666205
000130 8e de 1c 3d 62 87 c7 3c 98 1a c7 3d dd 3e a6 b9
       0.038298182 0.024356548 0.09721869 -0.00031708824
000140 2d 40 30 3e 77 5a 33 3d e5 28 e4 3d 7a af 5d 3e
       0.17211981 0.043787446 0.111406125 0.2164897
000150 12 55 4e ba 71 0c a9 3d 75 83 65 3d 15 71 29 bd
       -0.0007870953 0.08254326 0.05603357 -0.04136761
000160 27 52 b2 bd dc 84 66 bd e8 a2 18 be 78 a9 9b bc
       -0.087070756 -0.05627905 -0.14905894 -0.019001707
000170 db d8 f1 bd d8 75 d2 bd ff 5d e1 bc 51 c8 1f 3e
       -0.1180894 -0.10276383 -0.027510641 0.15603758
000180 40 6a 98 bc d3 08 71 bd ea 95 1f 3e 26 dc 04 bd
       -0.018605351 -0.058846306 0.15584531 -0.032436512
000190 42 18 87 3d 13 44 b0 3d ce 9c 26 3e 27 f1 99 3d
       0.06596424 0.08606734 0.16270754 0.07516699
0001a0 bc 5b e8 3d b2 f4 c4 bd b8 e6 76 3d 6d ef 5a 3c
       0.11345622 -0.096169844 0.060278624 0.013362748
0001b0 0a ed a3 3c ce 6e 15 be 4d 69 c4 bc ac 35 3c 3e
       0.02001049 -0.1459305 -0.023975993 0.18379849
0001c0 f1 cb e6 3d 50 de b3 3b 2a 83 3d 3d 7b b5 9d bd
       0.112693675 0.005489148 0.046267666 -0.0770063
0001d0 78 2d 89 bd 1c 94 20 3d 02 6d b7 3d 15 b2 6e 3d
       -0.066981256 0.039203748 0.089563385 0.0582753
0001e0 24 08 ef bd f2 c7 92 bd d3 b9 b1 3d f3 cc 90 bd
       -0.116714746 -0.07167043 0.08678021 -0.07070341
0001f0 94 2b 04 be 14 a4 23 3d 7d 94 89 3d 5d 38 3a 3e
       -0.12907249 0.0399514 0.06717775 0.18185563
000200 8d e2 9a 3c 3e 9a b7 bd bb 1c f5 3d 27 92 22 be
       0.018906856 -0.08964966 0.119683705 -0.15876065
000210 7f 76 1c 3d 43 5d a6 3d 8c e3 da bc ef a6 86 bd
       0.038198944 0.08123257 -0.02671983 -0.06574809
000220 79 ca 3c 3e 48 65 47 bd ad 7e 27 3e 94 eb 25 3d
       0.18436612 -0.048680574 0.16356917 0.040507868
000230 7c 91 8f 3d 95 99 b6 3d 75 a5 84 bd a4 a3 b9 bc
       0.07010171 0.08916012 -0.06476871 -0.022661038
000240 2c 16 08 be 3e 0e 78 bd be 50 61 3d 40 c9 f0 bd
       -0.13289708 -0.060560457 0.055008642 -0.117571354
000250 02 77 d2 bd f6 51 87 3e df 44 6c 3c 54 39 15 bd
       -0.10276605 0.2642972 0.014420717 -0.036431625
000260 42 52 a1 3d 69 58 94 bd b0 b1 d0 3d 37 7a 14 be
       0.078770176 -0.072434254 0.10190141 -0.14499746
000270 d0 08 e0 bc 18 f9 dc bd 8f 4d a5 3d 86 b1 13 3e
       -0.027347952 -0.10789698 0.08071434 0.14423189
000280 db 41 08 3e da 4f 5c bd 9c f7 29 3e 7b 28 8e 3c
       0.13306372 -0.05378709 0.16598362 0.017353287
000290 eb c9 86 bd 17 a7 91 3d b0 bd a2 3d e3 fd 21 3e
       -0.065814815 0.07111948 0.07946336 0.15819506
0002a0 d2 c4 ca bd 7d de a0 bd d9 10 e1 bd 90 7e 1d 3e
       -0.09900822 -0.07854936 -0.109895416 0.15380311
0002b0 d6 e9 fe bb 7a 74 fa 3d d3 4e a7 3d 3e d6 22 3e
       -0.0077793403 0.122292474 0.081693314 0.1590204
0002c0 9a d7 5f 3d b1 e9 53 3e 7e 04 9b bd 5c 3f 14 be
       0.054648973 0.20694615 -0.07569216 -0.14477295
0002d0 6c d0 11 bd 5a 34 a7 3c d1 06 75 be 6a 20 86 3d
       -0.035599157 0.020410705 -0.23928382 0.06549151
0002e0 39 cc 8a 3d 27 79 2d bd 89 27 d8 bd 06 bb 8b bd
       0.06777234 -0.042351868 -0.10554416 -0.06822781
0002f0 be 77 6c bb 3a 5e 2e be 90 1b 4e 3d cf 01 8a 3d
       -0.0036082114 -0.17028132 0.050319254 0.06738626
000300 79 ba a1 3d ac 2d 2f 3e 42 58 61 bb 0f e6 1f 3e
       0.07896895 0.17107266 -0.003438488 0.15615104
000310 5a 77 eb bd 3a e1 7a bd 6c c1 53 be ec c2 68 3d
       -0.11497374 -0.06124995 -0.20679253 0.056826517
000320 0b 85 03 be 24 54 e2 bd a7 c0 3b bd 99 5d 1a 3d
       -0.1284372 -0.11051205 -0.045838024 0.037686918
000330 0c 09 59 3c 09 56 9b bd 74 08 51 bd db 58 33 bd
       0.013246786 -0.07584769 -0.051033452 -0.04378591
000340 42 3a 93 bd 0b 71 f6 bd 0e 25 28 3d d2 18 08 be
       -0.07188846 -0.1203328 0.041050963 -0.13290718
000350 2f de 51 bd fe da 6a 3e b4 89 43 bd ff 45 b1 bd
       -0.05123728 0.22935101 -0.047738746 -0.08655929
000360 ef f1 b2 bb c1 36 65 3e 44 1f 62 be 50 f4 c5 3d
       -0.0054609696 0.22384168 -0.2208224 0.096657395
000370 3f 29 1a 3d 0d bd 28 be a4 ff 2a 3e e1 bf 2b 3e
       0.03763699 -0.16478367 0.16699082 0.16772415
000380 a1 43 03 be 4b b2 f8 bc b8 41 0c 3e a0 4f 6d bd
       -0.12818767 -0.030358454 0.13696945 -0.057937264
000390 ce dd 85 3d 77 c0 b5 3d 82 94 cc bd 1e a2 08 bd
       0.065364465 0.088746004 -0.09989263 -0.033357732
0003a0 71 84 89 3d ec 31 8e bc 3f 69 54 bc 02 4e 81 bd
       0.06714714 -0.017357789 -0.012964546 -0.06313707
0003b0 e7 31 14 3e fd 71 65 bd 36 f3 88 bd 7f a4 4d bd
       0.14472161 -0.05601691 -0.06687014 -0.050205704
0003c0 eb d1 12 be a5 b3 3a be 55 20 b5 bd 1d a4 25 3e
       -0.1433789 -0.18232591 -0.088440575 0.16175885
0003d0 db f2 cc bd fa 96 4f 3d d2 07 ee bd 45 47 b6 3c
       -0.100072585 0.05068109 -0.11622585 0.02225078
0003e0 e7 66 9d 3b aa a8 49 be 20 fe 04 bd ee ec c6 3c
       0.0048035267 -0.19693246 -0.032468915 0.024282899
0003f0 21 70 f9 3d 98 e8 2a 3d 2f 5c 4c 3c b2 21 1f bd
       0.1217959 0.041725725 0.01247315 -0.038850494

bias f4 [24]
000000 74 92 2f bc e7 b2 2e be 1f f6 c1 3d 91 a0 8b bd
       -0.0107160695 -0.17060433 0.09470772 -0.06817735
000010 4d da 1c bd ac cd d0 3d a8 bf 5c 3e 41 d3 90 bd
       -0.038294125 0.10195479 0.21557486 -0.070715435
000020 c3 67 09 be 51 1b 0c 3d a4 75 b4 bc 71 eb b4 3d
       -0.13418488 0.03420574 -0.022028752 0.088339694
000030 48 81 a8 3d 7c 4f a3 bc 76 cb 53 be 5e 55 e8 bd
       0.082277834 -0.019935362 -0.20683083 -0.113444075
000040 d7 42 21 bd 59 4f b2 3d 8a f3 7d 3d bf 5b 94 3d
       -0.039370384 0.087065406 0.061999835 0.07244062
000050 c0 d9 d8 3c 88 3a 9c 3b ca c6 05 bd 6c c8 15 3d
       0.026471019 0.0047677197 -0.032660283 0.03656809
