net and train/version2/net/net.pkl (torch_old, 121545 bytes, 20 tensors)

weight f4 [4, 2, 3, 3]
-0.031728495 0.197557 -0.15094237 0.2191207 -0.12906495 -0.23171535 -0.023454422 -0.12210937
0.13955064 0.38180414 0.13758576 -0.00043203693 0.15608403 0.3169603 -0.11901083 0.19912203
-0.14504252 -0.16701847 -0.19737731 -0.17224143 0.22507426 -0.09005527 -0.10414557 -0.1194175
-0.0929453 0.20354967 -0.11305955 0.15806188 0.047012065 -0.07043766 0.022974716 0.042017613
0.15714024 -0.20762153 -0.0043224692 0.15766148 -0.025480473 -0.12273884 -0.01904176 -0.117492855
0.1072957 -0.21487002 -0.220875 -0.026432559 0.18406217 0.082200624 -0.062070746 0.11562893
-0.05278042 -0.15810697 0.14299642 0.15062733 -0.14491856 -0.1944051 -0.064133935 0.11564018
-0.058893044 0.1454527 0.08031222 -0.14545584 -0.15631768 -0.071138315 0.018332005 0.031338595
0.29817408 0.099388614 0.05371962 0.5096881 0.25604147 0.3450301 0.48542732 0.28936094
00000000: bdf5 01bd 624c 4a3e a390 1abe 2d61 603e
00000010: 9a29 04be ca46 6dbe 7d23 c0bc 7a14 fabd
00000020: 5de6 0e3e d57b c33e 48e3 0c3e 0483 e2b9
00000030: 7ed4 1f3e 9f48 a23e f3bb f3bd a5e6 4b3e
00000040: 0786 14be e406 2bbe 471d 4abe 0f60 30be
00000050: de79 663e e66e b8bd 464a d5bd 2a91 f4bd
00000060: 1b5a bebd 536f 503e c48b e7bd f9da 213e
00000070: b98f 403d 9f41 90bd 7935 bc3c a91a 2c3d
00000080: 5fe9 203e bd9a 54be 80a3 8dbb 0372 213e
00000090: 6dbc d0bc 805e fbbd 77fd 9bbc 18a0 f0bd
000000a0: d9bd db3d e306 5cbe 0e2d 62be 1889 d8bc
000000b0: cb7a 3c3e cd58 a83d e53d 7ebd dcce ec3d
000000c0: 4830 58bd cbe6 21be a76d 123e 0d3e 1a3e
000000d0: 8865 14be 2112 47be a758 83bd c2d4 ec3d
000000e0: d539 71bd 8df1 143e bc7a a43d 60f2 14be
000000f0: be11 20be f7b0 91bd 002d 963c e65c 003d
00000100: 46aa 983e 428c cb3d 1b09 5c3d eb7a 023f
00000110: de17 833e c9a7 b03e ee89 f83e 1e27 943e

bias f4 [4]
0.051840443 0.13457166 -0.134998 -0.06869037
00000000: a556 543d 27cd 093e ea3c 0abe 89ad 8cbd

weight f4 [8, 4, 3, 3]
0.101639636 -0.079300076 -0.04923856 0.17842704 0.16811918 0.23815979 0.20538062 0.07954622
0.44787228 0.30844805 -0.064515516 -0.2047266 0.11499992 -0.0042193388 -0.124089986 0.17143488
0.10733203 -0.06003951 0.1157323 -0.08953351 -0.15553856 -0.14373527 -0.0770373 -0.0034268647
-0.0063031726 0.10464172 0.14851056 0.133764 0.19959798 0.042507924 0.2024197 0.14529526
-0.056913875 0.042248752 0.041092485 0.0953181 -0.14816979 0.15159954 0.00037299097 -0.16280958
0.119694784 -0.019537434 -0.12848471 0.028822586 0.060572848 0.16205479 -0.15136915 0.016099274
0.14771663 0.017644688 0.022869587 0.0020601153 0.14132954 0.012292445 -0.08831527 0.08772363
-0.11011195 -0.037651956 -0.030936837 0.043418273 0.15440263 0.083010435 0.05239296 -0.13969406
-0.14042151 -0.075266406 -0.037028775 -0.092555344 -0.13613075 0.019462109 -0.088143215 -0.08624256
0.13384919 0.17863868 -0.08512185 0.13336742 -0.039175265 0.19233738 0.05375269 -0.026181161
0.115748726 0.05322261 0.19505186 -0.15173605 0.19059542 0.30559766 -0.14846116 0.0526741
0.23860835 0.10251566 -0.053522214 -0.1248469 0.024065211 -0.0057590455 0.15719105 0.018473193
0.07292913 -0.026268795 -0.08709203 -0.14656092 -0.03306587 0.020579126 -0.12615965 0.06294283
-0.010765681 -0.08146518 0.13999143 0.011272421 -0.13449119 -0.15641735 0.0048794597 -0.16645882
0.1063091 0.012015209 0.044044256 0.1313894 0.014767304 0.12087385 -0.10975238 -0.16251177
0.062202036 0.09738089 0.12789299 -0.044446334 0.045676053 0.039360583 0.06074883 -0.08024663
-0.06079229 -0.08500199 -0.041669928 0.14097182 0.06323576 -0.042736612 0.14713393 0.09743942
-0.09292011 -0.08602451 -0.0042191297 -0.0991291 -0.013309881 0.07011616 -0.15483755 -0.15231511
0.075417094 -0.0874325 0.01578627 -0.112040386 0.17177632 0.19835182 -0.014075322 -0.14007573
0.08886623 0.052276842 0.060810305 -0.018517677 0.17351834 0.25767562 0.19403034 -0.06980152
0.20894396 0.14856334 0.13265486 0.10397987 0.06832065 0.16313085 0.12871297 0.05471611
-0.108781874 0.11240305 0.099029794 -0.08396381 0.10738171 0.09648765 0.08123317 0.16369735
-0.07111281 -0.06985219 -0.03873825 -0.15823331 -0.11158245 0.11638964 -0.0061890385 -0.19541949
-0.007462239 0.3057783 -0.15999822 0.037421 0.23723558 0.08834277 0.06725022 0.030772302
0.20911552 0.06501989 0.11227536 0.2154727 0.23665515 0.15192382 0.092149004 0.079349175
-0.09915578 -0.12205174 -0.040407207 0.0022102743 0.1152107 0.086623445 -0.046568118 0.12900288
0.17451051 -0.06483712 0.10274552 0.0063840076 0.107193165 0.026455114 0.1634498 0.0026499694
-0.12694362 -0.04528389 -0.22689815 0.13079585 -0.14550589 -0.2268271 -0.2692429 8.008404e-06
-0.15171123 0.009423239 0.13336092 0.020662265 0.021208452 -0.17550556 0.17589034 -0.101906694
0.10202092 0.03035564 0.15572508 -0.096997544 0.07799353 0.100288704 -0.04809749 -0.03362964
-0.09234685 0.16312928 -0.037396267 -0.14975052 -0.116187274 0.1989478 0.03860479 0.07011747
0.0338093 0.14162917 -0.09049468 0.22412968 -0.048895832 0.14804465 0.19750652 0.14635253
00000000: 7128 d03d 1468 a2bd 5fae 49bd 94b5 363e
00000010: 6f27 2c3e 29e0 733e 4c4f 523e 21e9 a23d
00000020: 844f e53e e7ec 9d3e b620 84bd daa3 51be
00000030: 1485 eb3d 6142 8abb e422 febd a08c 2f3e
00000040: e5d0 db3d fdeb 75bd 0e05 ed3d 585d b7bd
00000050: 8045 1fbe 572f 13be bbc5 9dbd 4095 60bb
00000060: d88a cebb 664e d63d 2713 183e 6ef9 083e
00000070: 6a63 4c3e ca1c 2e3d 1c47 4f3e 48c8 143e
00000080: 861e 69bd 070d 2d3d 9850 283d 2336 c33d
00000090: d2b9 17be e93c 1b3e 008e c339 8eb7 26be
000000a0: 8a22 f53d f80c a0bc 7f91 03be 581d ec3c
000000b0: 3c1b 783d b1f1 253e 8400 1bbe a0e2 833c
000000c0: 0743 173e 988b 903c 0059 bb3c 0003 073b
000000d0: b1b8 103e 4066 493c a3de b4bd 72a8 b33d
000000e0: 6082 e1bd f038 1abd 406f fdbc 5cd7 313d
000000f0: b91b 1e3e 6001 aa3d 009a 563d f60b 0fbe
00000100: a8ca 0fbe 4625 9abd 7cab 17bd a88d bdbd
00000110: dc65 0bbe 006f 9f3c 6e84 b4bd f09f b0bd
00000120: c30f 093e 0fed 363e 5d54 aebd 7891 083e
00000130: 3e76 20bd 17f4 443e c82b 5c3d e079 d6bc
00000140: ab0d ed3d f4ff 593d adbb 473e b260 1bbe
00000150: 722b 433e 4c77 9c3e 3406 18be ccc0 573d
00000160: bf55 743e bbf3 d13d 1c3a 5bbd bbaf ffbd
00000170: 6824 c53c 60b6 bcbb b1f6 203e 1855 973c
00000180: de5b 953d a831 d7bc 4e5d b2bd 1114 16be
00000190: 1470 07bd 8e95 a83c ff2f 01be 2ce8 803d
000001a0: 8a62 30bc 37d7 a6bd ea59 0f3e f6af 383c
000001b0: 0fb8 09be df2b 20be e0e3 9f3b 2e74 2abe
000001c0: 96b8 d93d 70db 443c c067 343d f18a 063e
000001d0: 90f2 713c b68c f73d dbc5 e0bd 7c69 26be
000001e0: 90c7 7e3d a26f c73d 61f6 023e 5c0d 36bd
000001f0: d016 3b3d 9038 213d c4d3 783d 5858 a4bd
00000200: 5601 79bd 8615 aebd 16ae 2abd eb5a 103e
00000210: c081 813d 960c 2fbd 47aa 163e 528e c73d
00000220: e64c bebd 9e2d b0bd a040 8abb 3304 cbbd
00000230: b011 5abc 1099 8f3d bc8d 1ebe 7ef8 1bbe
00000240: 4774 9a3d d00f b3bd 3552 813c 6e75 e5bd
00000250: 22e6 2f3e bd1c 4b3e 2e9c 66bc 0370 0fbe
00000260: 7fff b53d 3e20 563d 3a14 793d 62b2 97bc
00000270: cbae 313e 0fee 833e e4af 463e 19f4 8ebd
00000280: 68f5 553e fd20 183e add6 073e 66f3 d43d
00000290: b2eb 8b3d c60b 273e 55cd 033e 001e 603d
000002a0: 08c9 debd 9233 e63d 22d0 ca3d 38f5 abbd
000002b0: f1ea db3d 519b c53d 945d a63d 47a0 273e
000002c0: 98a3 91bd aa0e 8fbd 00ac 1ebd ea07 22be
000002d0: 5785 e4bd b15d ee3d 6bcd cabb 0c1c 48be
000002e0: cc85 f4bb f98e 9c3e 93d6 23be c346 193d
000002f0: e2ed 723e 0eed b43d 7cba 893d 3216 fc3c
00000300: 6122 563e 2629 853d a0f0 e53d e0a4 5c3e
00000310: ba55 723e eb91 1b3e 9eb8 bc3d d281 a23d
00000320: 3012 cbbd 43f6 f9bd 0782 25bd 40da 103b
00000330: 96f3 eb3d a267 b13d 36be 3ebd 5519 043e
00000340: e2b2 323e 53c9 84bd 3e6c d23d f030 d13b
00000350: 1788 db3d 65b8 d83c 625f 273e 1cab 2d3b
00000360: 82fd 01be 9a7b 39bd fd57 68be 59ef 053e
00000370: 7fff 14be 5d45 68be 35da 89be d55b 0637
00000380: 305a 1bbe ee63 1a3c c48f 083e e943 a93c
00000390: 59bd ad3c bbb7 33be 991c 343e 75b4 d0bd
000003a0: 58f0 d03d 64ac f83c 6576 1f3e a6a6 c6bd
000003b0: 12bb 9f3d 2a64 cd3d e001 45bd 3cbf 09bd
000003c0: 5820 bdbd 5d0b 273e d42c 19bd 3358 19be
000003d0: 98f3 edbd f9b8 4b3e 0e20 1e3d c099 8f3d
000003e0: 9f7b 0a3d 3d07 113e 4655 b9bd 4082 653e
000003f0: ff46 48bd 0499 173e 263f 4a3e 70dd 153e

bias f4 [8]
0.07464282 -0.11636627 0.0028585296 0.08624925 -0.013176846 0.011377924 0.20000364 0.1150804
00000000: 56de 983d 7051 eebd 2b56 3b3b 72a3 b03d
00000010: b3e3 57bc 796a 3a3c c1cd 4c3e 46af eb3d

weight f4 [12, 8, 3, 3]
0.047099955 -0.11561194 0.06820005 0.16506109 0.11415498 -0.07055752 0.05700766 0.12640302
0.0067917765 -0.030465305 -0.004282862 -0.03661082 -0.11281718 0.050376646 -0.061298687 -0.031600215
0.089704596 0.07482424 0.124353595 0.04079996 -0.06623549 -0.032509573 -0.1791502 -0.10822475
0.09901386 -0.17926528 -0.10287421 -0.10273254 0.026534744 0.07117621 -0.098392114 0.017473184
0.023293458 -0.0655632 -0.09283855 0.031099789 0.027628668 0.062892355 -0.090950735 0.18083541
-0.05682673 0.03438417 0.10454127 -0.09918171 -0.13996632 0.09413952 -0.06380385 -0.13455486
0.121003844 -0.10978212 0.08142987 0.12012071 0.07085741 -0.09027252 0.02433804 -0.034244798
-0.06271482 0.08705883 -0.16362499 -0.12303409 0.0973764 -0.20259978 -0.028009612 0.03928484
-0.025680037 0.039610904 -0.07225829 -0.069282085 0.048113722 -0.02645061 -0.026062507 0.14289299
0.032838814 -0.10647836 0.031553157 0.065914705 0.050601564 -0.014057599 -0.1108568 0.03248431
0.13053682 0.06789345 0.053352214 -0.114541665 0.018375523 0.05768197 0.04192666 0.00890065
-0.06453082 -0.064312875 -0.031507876 -0.01627125 0.22593814 -0.00018818473 0.06390843 0.049712025
0.07785407 0.15531588 0.0380188 -0.09545383 0.008392133 0.09219762 -0.03548769 -0.008250706
-0.08480327 -0.10334406 -0.101781465 -0.030364133 -0.026011597 -0.14818156 0.06385504 0.17965478
0.14496265 0.08534584 0.034115788 -0.044399492 0.06629828 0.050233204 -0.04986643 -0.045890413
0.06166807 -0.007356911 0.08811125 -0.12358798 -0.07521758 0.027826909 0.026757384 -0.02357062
-0.043455824 -0.10236844 0.03593396 0.09222812 -0.13441268 0.103818506 -0.07807108 -0.018045226
0.15180129 0.09075599 -0.074001946 0.03649609 0.005909547 0.04371649 -0.060043797 0.04551691
0.09366259 0.07763905 0.05965707 -0.11474995 0.10999344 0.03363994 -0.1219373 -0.006157625
0.049460504 0.014004938 0.021248288 0.011673771 -0.019272909 0.06507737 0.09744587 0.04602567
-0.08613266 0.027873375 -0.028178602 0.22563384 0.10028169 0.14416954 0.014311774 -0.021997955
-0.0030114735 0.04338381 0.08606896 0.029893808 0.044629224 0.0034074858 0.060987122 -0.0042158216
-0.10475445 0.061874397 0.10515856 0.112362005 -0.0478955 -0.057133436 0.019963652 -0.030309683
0.049058232 0.102346554 -0.010463621 0.11873286 0.04756817 0.06448658 0.08968023 -0.0659869
0.069316424 0.054451946 -0.03463411 -0.08617354 -0.04575726 -0.028496405 0.07752011 0.030611088
-0.071603805 -0.03860123 -0.033143934 -0.25607708 -0.006752793 0.027522044 -0.112180345 0.0058444967
0.064226486 0.090534545 0.06479654 0.018675523 -0.1111197 -0.06606174 0.026618844 0.060989883
0.035395026 0.058737297 0.1031628 -0.058258414 0.11879885 -0.061659314 -0.0068927477 0.003408093
-0.0890086 -0.07869453 -0.09242448 -0.08302526 0.008077405 -0.1129367 -0.08892347 -0.0049207956
-0.049621664 -0.09731917 -0.04220981 0.20385087 -0.07954364 0.08422147 0.11373953 -0.018257545
-0.08198099 0.009694805 -0.02519394 -0.036909483 -0.05142743 -0.05656652 0.07720599 -0.099955484
0.02245707 0.016459025 0.02231834 0.025026686 0.022715237 0.07577546 0.020389471 -0.059789825
00000000: e2eb 403d f4c5 ecbd 78ac 8b3d c605 293e
00000010: 16ca e93d 7680 90bd dd80 693d cb6f 013e
00000020: 8d8d de3b 6092 f9bc 4057 8cbb 3af5 15bd
00000030: b20c e7bd be57 4e3d 5514 7bbd 3a6f 01bd
00000040: 0bb7 b73d 733d 993d 19ad fe3d dc1d 273d
00000050: 79a6 87bd c228 05bd 2673 37be f0a4 ddbd
00000060: c7c7 ca3d 5191 37be b7af d2bd 7065 d2bd
00000070: 645f d93c d5c4 913d ce81 c9bd ec23 8f3c
00000080: ecd1 be3c 0046 86bd 2322 bebd fcc4 fe3c
00000090: 8455 e23c b5cd 803d 6144 babd eb2c 393e
000000a0: 25c3 68bd 6ad6 0c3d bc19 d63d c81f cbbd
000000b0: 5553 0fbe 38cc c03d 98ab 82bd c0c8 09be
000000c0: ddd0 f73d 73d5 e0bd b4c4 a63d d901 f63d
000000d0: b11d 913d cde0 b8bd 9260 c73c 4644 0cbd
000000e0: a170 80bd e64b b23d 4f8d 27be 4cf9 fbbd
000000f0: 476d c73d 5176 4fbe 6a74 e5bc 24e9 203d
00000100: f15e d2bc 0b3f 223d 28fc 93bd c4e3 8dbd
00000110: e512 453d f3ae d8bc 0a81 d5bc 8a52 123e
00000120: fe81 063d 5411 dabd e23d 013d 4afe 863d
00000130: 9643 4f3d d851 66bc e408 e3bd 450e 053d
00000140: 72ab 053e b90b 8b3d da87 5a3d d294 eabd
00000150: 4488 963c ee43 6c3d 4abb 2b3d 08d4 113c
00000160: bc28 84bd 78b6 83bd 670e 01bd 494b 85bc
00000170: 545c 673e 7453 45b9 6ce2 823d d69e 4b3d
00000180: f471 9f3d 200b 1f3e 9ab9 1b3d 4c7d c3bd
00000190: 287f 093c 1bd2 bc3d 8a5b 11bd f82d 07bc
000001a0: 56ad adbd 0da6 d3bd cd72 d0bd 34be f8bc
000001b0: 4616 d5bc e8bc 17be 6ec6 823d 6cf7 373e
000001c0: 1771 143e cdc9 ae3d ffbc 0b3d 3edc 35bd
000001d0: 65c7 873d 55c1 4d3d be40 4cbd 96f7 3bbd
000001e0: a897 7c3d 3e12 f1bb ac73 b43d b21b fdbd
000001f0: ad0b 9abd 42f5 e33c 4d32 db3c 2c17 c1bc
00000200: bcfe 31bd 8ba6 d1bd 7d2f 133d 19e2 bc3d
00000210: 7aa3 09be cc9e d43d bbe3 9fbd 95d3 93bc
00000220: cc71 1b3e 47de b93d 558e 97bd ed7c 153d
00000230: e0a4 c13b 1010 333d 7cf0 75bd f06f 3a3d
00000240: 2cd2 bf3d 3901 9f3d f95a 743d 0602 ebbd
00000250: 3e44 e13d 09ca 093d 43ba f9bd e7c5 c9bb
00000260: 1997 4a3d f874 653c e410 ae3c 5843 3f3c
00000270: 38e2 9dbc 4947 853d b391 c73d 6a85 3c3d
00000280: 5266 b0bd b456 e43c d0d6 e6bc 8f0c 673e
00000290: 7d60 cd3d 2ea1 133e ee7b 6a3c 0e35 b4bc
000002a0: 245c 45bb 39b3 313d ec44 b03d dce3 f43c
000002b0: 22cd 363d 2050 5f3b a2cd 793d e024 8abb
000002c0: 8089 d6bd 0270 7d3d 5f5d d73d 0d1e e63d
000002d0: 122e 44bd c004 6abd d08a a33c 034c f8bc
000002e0: 49f1 483d 129b d13d 9b6f 2bbc 372a f33d
000002f0: d7d6 423d 8a11 843d 45aa b73d 2424 87bd
00000300: c5f5 8d3d 0109 5f3d 7fdc 0dbd c17b b0bd
00000310: f76b 3bbd 4b71 e9bc ddc2 9e3d 1bc4 fa3c
00000320: 04a5 92bd 531c 1ebd efc1 07bd 891c 83be
00000330: 8946 ddbb e975 e13c cfbe e5bd 3183 bf3b
00000340: 2d89 833d 2d6a b93d 0cb4 843d 69fd 983c
00000350: ba92 e3bd 614b 87bd c30f da3c 87d0 793d
00000360: 60fa 103d 8596 703d 0547 d33d 60a0 6ebd
00000370: d04c f33d 7a8e 7cbd 8fdc e1bb 505a 5f3b
00000380: 244a b6bd 992a a1bd 0c49 bdbd 2609 aabd
00000390: 1857 043c 5b4b e7bd 821d b6bd a03e a1bb
000003a0: 1640 4bbd 464f c7bd 32e4 2cbd 48be 503e
000003b0: c7e7 a2bd 4e7c ac3d 45f0 e83d d990 95bc
000003c0: a6e5 a7bd f6d6 1e3c 8663 cebc 662e 17bd
000003d0: 92a5 52bd 4cb2 67bd 2d1e 9e3d 76b5 ccbd
000003e0: e4f7 b73c 14d5 863c f4d4 b63c c404 cd3c
000003f0: 4e15 ba3c 2a30 9b3d d207 a73c 2de6 74bd

bias f4 [12]
-0.14060724 0.09454969 -0.08562261 -0.098296635 -0.07012039 -0.12596819 -0.05923627 -0.07569174
0.062620535 -0.093387075 -0.07033297 -0.12029343
00000000: 58fb 0fbe 45a3 c13d e85a afbd bf4f c9bd
00000010: 479b 8fbd cefd 00be bba1 72bd 4504 9bbd
00000020: 323f 803d b941 bfbd bb0a 90bd 675c f6bd

weight f4 [16, 12, 3, 3]
0.080089465 0.13198482 0.08383805 0.053935204 0.111145295 -0.07431392 0.020459792 0.08624189
-0.04308307 0.14369293 -0.10469713 -0.021292845 -0.05086523 -0.14033674 0.07564105 0.08585832
-0.09267667 -0.036372483 0.038966045 0.067254245 -0.036604643 0.051796086 0.018143104 0.0030331372
0.09788058 0.013436051 0.057765577 0.0750605 -0.06016316 -0.04956093 0.11789901 -0.09721571
-0.010594636 -0.017591577 0.037343036 -0.0900998 0.058007345 -0.08066168 0.10644898 -0.047006667
-0.0037662336 -0.017639417 0.10740742 0.038527943 0.060358103 0.07537546 0.02102231 0.05206841
-0.04393717 0.03352171 0.08108964 0.032156013 0.03751851 0.11401771 0.038998865 -0.023720026
0.06047807 -0.022346722 0.02120684 0.039443977 0.04912031 0.0671077 0.081549935 -0.008230563
0.027257683 -0.11101819 0.03075397 -0.09196228 -0.06576885 -0.012062381 -0.073572576 0.032937907
0.023168117 0.02762841 0.037096456 -0.037921675 -0.09925993 0.09617555 -0.03891293 -0.08441952
-0.045375563 0.020467388 -0.018285833 0.08134687 0.053022522 0.105232656 0.008189173 -0.0115137575
-0.0019281841 0.0469958 -0.08078222 -0.07416634 0.00012260475 0.072669394 0.09192724 0.027677365
-0.01942622 -0.0065016598 0.08226556 0.057213444 0.025979862 0.003050117 0.121064715 0.11036204
-0.054365106 0.10025876 0.062335324 -0.12780224 -0.055241097 0.024891574 -0.0021023648 0.04410064
0.013656926 0.105100125 -0.015055375 -0.0050077536 0.093615085 -0.059357055 -0.10360047 0.086319126
0.06612493 0.05336792 -0.08456682 0.0037410446 0.011302496 0.091984056 0.044181827 -0.09625131
-0.036070775 -0.017507516 0.0031807846 -0.059396777 0.0936294 0.08671489 0.031509917 -0.011588875
0.010477642 0.033801265 -0.036869388 -0.12128791 -0.11253917 0.1637485 -0.013103105 0.06750135
0.113697074 -0.038859587 -0.06819796 0.06809567 -0.049470827 0.042623524 0.055835206 0.08052755
-0.044762604 -0.012582858 0.046203393 -0.0025345823 0.045459904 -0.07138532 0.078751 -0.0064738775
-0.026453208 0.073494524 0.08064992 -0.083412945 0.08022053 -0.08284899 0.07193307 -0.019651212
-0.076442294 0.020690756 -0.056692094 0.022361925 -0.055668928 0.008712971 -0.048373923 0.054169245
-0.052342508 0.07248447 -0.025631536 -0.07039097 0.02732526 0.15758999 0.03958917 -0.08190036
0.077012405 -0.054608997 -0.043636717 -0.06512058 -0.067043744 0.052354384 0.008299909 0.064053476
-0.047863588 0.0479362 -0.018696014 -0.05247972 -0.05504487 0.057999365 -0.0025916526 -0.07221787
-0.04816803 -0.016675668 -0.043312084 0.051781174 0.019238465 0.06288298 0.029022552 -0.070099406
-0.022962641 0.022016283 -0.03264792 -0.03302476 0.0061536636 -0.10916173 -0.08009866 0.01923085
-0.080787554 0.061843388 0.11644928 -0.03157849 0.11054798 0.07584353 -0.1104704 0.011522691
-0.06801217 0.056147482 -0.019450841 0.0505422 0.02944116 0.05157003 0.07561622 -0.04653535
-0.01498969 0.00032202608 0.0058038975 0.039486606 0.02995314 0.11740675 -0.030710323 -0.0408362
0.009722434 0.022730209 -0.051197562 0.007439658 0.020982109 -0.04503277 0.15572709 0.029516395
0.010061472 0.04248175 0.06137415 0.06451592 -0.004228349 0.04044252 0.081442215 0.11747674
00000000: f205 a43d 0727 073e 49b3 ab3d 29eb 5c3d
00000010: 25a0 e33d e631 98bd 4b9b a73c 979f b03d
00000020: e077 30bd 3d24 133e 736b d6bd 556e aebc
00000030: 0f58 50bd 6fb4 0fbe b2e9 9a3d 7dd6 af3d
00000040: 44cd bdbd 50fb 14bd dc9a 1f3d 98bc 893d
00000050: c0ee 15bd 2228 543d d9a0 943c 99c7 463b
00000060: 9d75 c83d e222 5c3c 999b 6c3d 52b9 993d
00000070: a56d 76bd 6700 4bbd 0975 f13d 0819 c7bd
00000080: 2095 2dbc 361c 90bc 03f5 183d 3e86 b8bd
00000090: 1c99 6d3d f331 a5bd ec01 da3d 108a 40bd
000000a0: ead2 76bb 8a80 90bc 6cf8 db3d 7acf 1d3d
000000b0: 0f3a 773d 735e 9a3d fb36 ac3c af45 553d
000000c0: 76f7 33bd 104e 093d 5312 a63d 06b6 033d
000000d0: 02ad 193d 1e82 e93d 46bd 1f3d 8050 c2bc
000000e0: dab7 773d 7910 b7bc f8b9 ad3c 0290 213d
000000f0: 6132 493d c36f 893d a703 a73d 7cd9 06bc
00000100: 814b df3c 815d e3bd c0ef fb3c b856 bcbd
00000110: d2b1 86bd 4ba1 45bc 38ad 96bd e6e9 063d
00000120: 10cb bd3c fa54 e23c 74f2 173d c253 1bbd
00000130: ca48 cbbd b0f7 c43d 2a63 1fbd 24e4 acbd
00000140: badb 39bd 39ab a73c 2ccc 95bc 3099 a63d
00000150: 252e 593d 3884 d73d e22b 063c 33a4 3cbc
00000160: 1fbb fcba ab7e 403d 2671 a5bd 86e4 97bd
00000170: 768f 0039 b1d3 943d 5944 bc3d a4bb e23c
00000180: bc23 9fbc e00b d5bb d97a a83d a558 6a3d
00000190: b8d3 d43c 79e4 473b c7f0 f73d 7e05 e23d
000001a0: f2ad 5ebd 7754 cd3d 5353 7f3d 97de 02be
000001b0: 7d44 62bd 6ae9 cb3c d4c7 09bb dfa2 343d
000001c0: 4dc1 5f3c bc3e d73d d2aa 76bc 1518 a4bb
000001d0: 44b9 bf3d 6220 73bd 7c2c d4bd 15c8 b03d
000001e0: 826c 873d 5298 5a3d 5e31 adbd 502c 753b
000001f0: 1b2e 393c 2362 bc3d 01f8 343d 681f c5bd
00000200: f3be 13bd ec6b 8fbc b674 503b 094a 73bd
00000210: c5c0 bf3d 9497 b13d 8b10 013d 44df 3dbc
00000220: 6aaa 2b3c 3273 0a3d 5b04 17bd cc65 f8bd
00000230: f07a e6bd b0ad 273e 68ae 56bc 263e 8a3d
00000240: 03da e83d 3b2b 1fbd 5fab 8bbd be75 8b3d
00000250: eca1 4abd 0196 2e3d 75b3 643d a1eb a43d
00000260: fe58 37bd 5528 4ebc c53f 3d3d 3c1b 26bb
00000270: 2a34 3a3d 7732 92bd 3448 a13d d222 d4bb
00000280: 66b4 d8bc 4c84 963d c92b a53d 68d4 aabd
00000290: a94a a43d bbac a9bd a551 933d 94fb a0bc
000002a0: c78d 9cbd a97f a93c f835 68bd 5b30 b73c
000002b0: 1a05 64bd d9c0 0e3c bc23 46bd 92e0 5d3d
000002c0: 1965 56bd bd72 943d 3af9 d1bc 2429 90bd
000002d0: 39d9 df3c 455f 213e 4128 223d 60bb a7bd
000002e0: aeb8 9d3d afad 5fbd 6abc 32bd f05d 85bd
000002f0: 3b4e 89bd 8d71 563d 57fc 073c 782e 833d
00000300: 9c0c 44bd c058 443d 6228 99bc faf4 56bd
00000310: bb76 61bd be90 6d3d b7d8 29bb f6e6 93bd
00000320: d74b 45bd 699b 88bc 0368 31bd 7f18 543d
00000330: fc99 9d3c cbc8 803d b4c0 ed3c 4790 8fbd
00000340: 261c bcbc 7e5b b43c d3b9 05bd f944 07bd
00000350: aca4 c93b 2f90 dfbd c40a a4bd 048a 9d3c
00000360: f273 a5bd 7e4f 7d3d f67c ee3d 7258 01bd
00000370: fb66 e23d da53 9b3d 4e3e e2bd abc9 3c3c
00000380: f749 8bbd e7fa 653d 5f57 9fbc 5705 4f3d
00000390: 962e f13c 193b 533d addc 9a3d da9b 3ebd
000003a0: 5197 75bc 9cd5 a839 9f2e be3b b5bc 213d
000003b0: 4a60 f53c f372 f03d 3794 fbbc dc43 27bd
000003c0: d84a 1f3c b434 ba3c 89b4 51bd 60c8 f33b
000003d0: ace2 ab3c 4874 38bd ec76 1f3e 5ecc f13c
000003e0: dfd8 243c 5801 2e3d 7663 7b3d ec20 843d
000003f0: f68d 8abb 0ea7 253d 2dcb a63d a597 f03d

bias f4 [16]
-0.07009363 -0.08532626 -0.009408581 -0.066855446 -0.012726397 -0.04680916 -0.09272439 -0.026875107
-0.11148682 0.026882444 0.10642294 -0.055733476 0.07171798 0.03163855 -0.09026095 0.032435976
00000000: 408d 8fbd 89bf aebd 7326 1abc 82eb 88bd
00000010: 6182 50bc f6ba 3fbd 49e6 bdbd 2f29 dcbc
00000020: 3453 e4bd 9238 dc3c 45f4 d93d c948 64bd
00000030: e0e0 923d 6d97 013d bcda b8bd 96db 043d

weight f4 [20, 16, 3, 3]
-0.04941007 0.0031203981 -0.012426448 -0.0391661 0.0009376296 -0.045331843 -0.014179386 0.07209313
-0.059869733 0.017654741 0.006584659 0.051373255 0.055054415 -0.0011961536 0.047684677 -0.050568447
0.011316808 0.06040473 0.062205926 0.14938693 0.05531236 -0.07541447 0.03967195 0.013747657
0.01313805 -0.075762026 0.015182141 -0.077042386 0.046457034 -0.120990306 -0.031022264 -0.013969811
-0.04831634 -0.157602 -0.06277915 -0.11987425 0.032107018 0.10873787 0.00542408 0.022926241
0.004808286 0.03135408 0.057518747 -0.06881669 0.07001887 0.075008295 -3.3853678e-06 0.08091314
0.033733368 0.16283537 0.059342913 0.051182546 0.0729735 0.0186146 -0.0809392 0.031538174
-0.04719131 -0.055866774 -0.08663595 0.047457248 0.06389962 -0.07365962 -0.06642608 0.08966623
0.025809593 0.033360202 -0.059613977 -0.067047164 -0.061374955 -0.12654221 -0.10924039 -0.060572237
-0.02313359 0.06956297 0.09088488 -0.10447479 -0.082244754 0.013674353 -0.086049125 -0.045687012
-0.007706304 0.07235668 0.07408849 0.086372934 -0.037743516 -0.05291742 -0.042469915 0.032265037
0.051133916 0.045219198 0.049771834 -0.015964294 0.12128886 -0.017843168 -0.10197233 0.13476317
-0.030026987 -0.0072700204 0.046284586 -0.011470158 0.07215502 -0.054965373 -0.058659147 -0.024947358
-0.060813628 -0.009286334 0.069491215 0.016949782 0.09317156 0.09259109 0.030642098 -0.005752194
-0.030658282 0.06660937 -0.018238096 -0.095563285 0.06649414 0.09373601 0.11617463 0.024482919
0.055599935 0.08453156 0.026109118 -0.048876736 0.09281013 0.048740126 -0.10252928 0.059685767
0.07910993 -0.08585159 0.006015877 0.049700107 -0.07810672 0.06509983 0.0432463 0.058528222
0.013863853 0.024046343 0.02520168 -0.019671895 0.06160949 0.09897253 0.020424519 -0.00533255
-0.049660034 0.017852003 -0.009927821 0.020210052 -0.07693829 0.017140266 0.09076929 0.0876652
-0.062208254 0.05339518 0.038036104 0.064680666 -0.048215933 -0.06582674 0.06569143 0.09612656
-0.052179374 0.04906351 0.008009136 -0.08410915 -0.06914688 0.05737719 -0.06370643 -0.04172699
0.09407493 -0.01425936 0.008825268 0.010489427 -0.039488733 0.005176909 0.0017668585 0.04695857
-0.022189474 -0.050161757 0.0145501 -0.03587145 0.074906625 0.03171104 0.025674688 0.056751315
0.07081283 -0.002915996 0.05403035 -0.024376309 0.050496887 -0.045032125 -0.08893193 0.12561291
0.020860597 -0.003393788 0.10111209 -0.052320983 -0.053802963 0.12758501 -0.036632895 0.025435418
-0.03341792 0.03897908 -0.042562857 -0.0059545487 0.0023805704 0.072293155 0.013775416 0.028763687
0.03990711 0.025406942 -0.0112270685 -0.018663034 -0.018507408 0.11902732 0.07120122 -0.06527992
-0.054497454 0.05907967 0.082430504 -0.110334024 -0.03364035 0.0006719191 -0.0055685383 -0.0071490617
-0.070668854 0.077513374 -0.08462681 0.07377838 0.0107726045 0.03786783 -0.04254795 -0.031198416
0.024616523 -0.00023602771 -0.020188332 -0.09590243 -0.039331898 -0.0044409004 -0.04317869 0.1201852
0.02775821 -0.08244676 0.05407966 0.026242495 -0.00044660058 -0.055700246 -0.060619075 0.07394699
-0.04159402 -0.03931961 0.039925713 -0.055331323 0.00088220334 -0.00071809546 0.15160964 -0.069560535
00000000: 3762 4abd 987f 4c3b 4d98 4bbc a26c 20bd
00000010: 42cb 753a e2ad 39bd a850 68bc 90a5 933d
00000020: f739 75bd ada0 903c 20c4 d73b c36c 523d
00000030: bd80 613d 41c8 9cba 0251 433d dc20 4fbd
00000040: 226a 393c f36a 773d a4cb 7e3d e3f8 183e
00000050: 378f 623d e772 9abd 0e7f 223d da3d 613c
00000060: fa40 573c 1f29 9bbd 84be 783c 66c8 9dbd
00000070: bb49 3e3d c4c9 f7bd 6722 febc a2e1 64bc
00000080: 5be7 45bd 6b62 21be 5b92 80bd a180 f5bd
00000090: a682 033d f6b1 de3d 7bbc b13b d0cf bb3c
000000a0: d48e 9d3b 236d 003d c798 6b3d c4ef 8cbd
000000b0: 0e66 8f3d f39d 993d 2d30 63b6 cab5 a53d
000000c0: 002c 0a3d 51be 263e 8e11 733d caa4 513d
000000d0: 2173 953d a57d 983c 74c3 a5bd 2c2e 013d
000000e0: ad4b 41bd 8fd4 64bd 306e b1bd 8862 423d
000000f0: cedd 823d dbda 96bd 660a 88bd eea2 b73d
00000100: a46e d33c b5a4 083d c92d 74bd 0650 89bd
00000110: 4e64 7bbd 4894 01be 6db9 dfbd 981a 78bd
00000120: a882 bdbc 0877 8e3d da21 ba3d e1f6 d5bd
00000130: f06f a8bd 650a 603c 863a b0bd 4e22 3bbd
00000140: 2a85 fcbb bd2f 943d b5bb 973d 4be4 b03d
00000150: f298 1abd f0bf 58bd eff4 2dbd 5828 043d
00000160: cc71 513d c437 393d 8ddd 4b3d 8dc7 82bc
00000170: 4b66 f83d d62b 92bc ded6 d0bd 5bff 093e
00000180: 28fb f5bc 5a39 eebb e894 3d3d 54ed 3bbc
00000190: 03c6 933d 5f23 61bd 9344 70bd 675e ccbc
000001a0: b617 79bd b525 18bc 6951 8e3d 45da 8a3c
000001b0: bbd0 be3d 66a0 bd3d 2305 fb3c e77c bcbb
000001c0: 1427 fbbc 7e6a 883d 0f68 95bc afb6 c3bd
000001d0: 142e 883d aaf8 bf3d f7ec ed3d 6790 c83c
000001e0: c2bc 633d e21e ad3d cae2 d53c f932 48bd
000001f0: 3d13 be3d baa3 473d dffa d1bd 1079 743d
00000200: 6304 a23d f5d2 afbd d520 c53b 5792 4b3d
00000210: 6af6 9fbd 0f53 853d 0823 313d 4abb 6f3d
00000220: 3725 633c d6fc c43c c173 ce3c f426 a1bc
00000230: 3c5a 7c3d 1cb2 ca3d 5251 a73c acbc aebb
00000240: 5268 4bbd 5d3e 923c 4da8 22bc 8d8f a53c
00000250: d291 9dbd be69 8c3c 40e5 b93d d089 b33d
00000260: 15ce 7ebd e7b4 5a3d bfcb 1b3d 4c77 843d
00000270: 127e 45bd 2bd0 86bd 3a89 863d 00de c43d
00000280: 0aba 55bd d2f6 483d c038 033c 6b41 acbd
00000290: e19c 8dbd 5804 6b3d 8478 82bd ece9 2abd
000002a0: 5baa c03d 17a0 69bc db97 103c d8db 2b3c
000002b0: f0be 21bd 0fa3 a93b ef95 e73a a157 403d
000002c0: b3c6 b5bc 6a76 4dbd 8b63 6e3c f1ed 12bd
000002d0: a568 993d 6fe3 013d b953 d23c 1174 683d
000002e0: 5106 913d 4b1a 3fbb ee4e 5d3d d3b0 c7bc
000002f0: d3d5 4e3d 9b73 38bd f221 b6bd aca0 003e
00000300: d8e3 aa3c 506a 5ebb db13 cf3d 874e 56bd
00000310: 7f60 5cbd a5a5 023e 600c 16bd f05d d03c
00000320: 3be1 08bd 87a8 1f3d 6456 2ebd 601e c3bb
00000330: 5803 1c3b 6f0e 943d 48b2 613c d3a1 eb3c
00000340: a375 233d 3822 d03c bdf1 37bc 38e3 98bc
00000350: d99c 97bc 98c4 f33d f2d1 913d 7bb1 85bd
00000360: b938 5fbd 86fd 713d 53d1 a83d cef6 e1bd
00000370: 77ca 09bd ba23 303a 4978 b6bb ad42 eabb
00000380: d5ba 90bd 55bf 9e3d d250 adbd 1f19 973d
00000390: 947f 303c 4c1b 1b3d c246 2ebd d293 ffbc
000003a0: 97a8 c93c 357e 77b9 0062 a5bc 7e68 c4bd
000003b0: 7c1a 21bd f984 91bb 23dc 30bd a823 f63d
000003c0: 3065 e33c d9d9 a8bd a282 5d3d 80fa d63c
000003d0: b725 eab9 f125 64bd b54b 78bd 8571 973d
000003e0: 7e5e 2abd 990d 21bd 2589 233d 19a3 62bd
000003f0: aa43 673a 923e 3cba 8f3f 1b3e c175 8ebd

bias f4 [20]
0.07355617 -0.016979849 0.0020998623 -0.079850726 -0.04048769 0.013177609 0.0164142 0.033922646
-0.05392851 0.02821328 -0.07068393 -0.06555823 0.0017070174 -0.0111636575 -0.07286321 -0.05459391
0.003050922 -0.04843725 -0.09366573 -0.006985509
00000000: 9ea4 963d 5319 8bbc d89d 093b c788 a3bd
00000010: 6cd6 25bd e6e6 573c 1377 863c 79f2 0a3d
00000020: 24e4 5cbd 891f e73c bcc2 90bd 6543 86bd
00000030: 00be df3a c6e7 36bc 4f39 95bd dd9d 5fbd
00000040: faf1 473b 2366 46bd d1d3 bfbd b2e6 e4bb

weight f4 [24, 20, 3, 3]
0.051150814 0.002311897 0.035205238 -0.018098138 -0.016996307 0.054944795 -0.048199773 -0.08332762
0.062952794 0.019686298 -0.013778846 0.004066719 0.035541177 -0.08150093 0.05269706 0.06847467
-0.14000002 -0.048097927 0.0067605097 -0.08764964 -0.0325377 0.07674664 -0.099816404 -0.017605865
-0.060988687 -0.0920199 -0.03525558 -0.0002729611 0.04003078 0.07768437 -0.037630748 -0.036958613
-0.050314315 0.019429674 0.0064485245 0.051863436 0.06353674 -0.093451194 0.038635537 0.014850439
-0.009891152 -0.07417413 0.025145398 -0.016094932 0.07528874 0.074191816 0.0042922497 0.035414018
-0.0611773 0.045514077 0.051964037 0.046934053 -0.0702608 0.073356785 -0.051346045 0.05543944
-0.042250164 -0.028018566 0.030027293 -0.010166564 -0.064486645 -0.012743751 0.039899822 -0.073270984
0.049808145 -0.045599386 -0.10638417 0.030314347 -0.0394012 -0.054627996 0.028518816 -0.023635171
-0.050744347 -0.07581071 -0.03386318 0.046651863 0.09230208 0.003065348 -0.037094694 -0.09115863
0.07001584 -0.027492398 -0.072553106 -0.070465215 0.07526453 -0.0066501843 0.04170345 -0.007450437
-0.03395628 0.0049251025 -0.037356142 -0.093332805 0.050464313 -0.11009579 0.053337723 0.078978874
-0.1119602 0.012780725 0.070746645 0.03889564 0.04139558 -0.0052569187 -0.048976056 -0.10333518
-0.019458551 -0.113528244 0.006089234 -0.10180542 -0.025946423 -0.004536487 0.033235542 0.053499974
-0.0040457696 0.03227002 -0.034723945 0.073633425 -0.01923798 -0.0027774402 0.10112655 0.026371647
0.04703638 0.079255514 -0.046236023 -0.12832816 0.042281434 0.021697227 0.03212957 -0.03999922
0.019656472 -0.017205505 -0.0850677 0.079581514 0.044372875 -0.087321416 0.027365217 -0.04036716
0.062111847 0.0063157957 -0.020996168 0.021618044 -0.055510193 -0.14272775 0.039452787 -0.03930859
-0.07433516 -0.029207641 0.007999529 -0.011414475 0.05990031 0.029862441 -0.07776338 0.035271257
-0.024766633 -0.030919984 -0.060168173 -0.0061518885 0.0795795 0.040064707 -0.011373999 0.096196234
-0.14625888 -0.053120214 0.052186567 0.048885845 -0.06426155 0.020708103 -0.05692742 0.036731172
-0.03697122 0.0027097592 0.069925606 0.110201776 -0.018602282 0.02143353 -0.11459516 -0.07125278
-0.08160313 0.011628989 -0.047636352 0.012634579 -0.051249366 -0.003940811 0.055970844 -0.025995152
0.054553982 -0.045865264 -0.06332613 -0.06668053 0.074350886 0.035244454 0.0093960855 0.017283117
-0.038439363 0.0901634 0.09976123 -0.09551237 -0.045455407 0.02461632 -0.008141681 -0.057343055
0.06941087 -0.053958226 -0.02158756 0.07586112 0.06364479 -0.08314122 0.14733875 -0.02918986
0.072458334 0.027429014 0.08255066 0.06524631 0.0648914 -0.028210726 0.08478768 0.027255217
-0.082518645 -0.055904858 0.0175144 -0.07405994 -0.11478497 0.0924198 0.056075644 0.03899275
-0.016664121 -0.04126285 0.029542223 -0.04574418 -0.018057268 -0.026107613 0.013961464 -0.00978145
0.016657168 0.0019326429 0.020219026 -0.05754297 0.0026754655 -0.010684968 0.027885117 -0.010505449
-0.11273298 0.04868765 -0.06007668 -0.0723093 0.055868004 -0.012896431 0.14505355 -0.0148175685
-0.05943814 -0.05742623 0.10221348 -0.008509262 0.07660834 -0.05581963 0.032526378 0.040911242
00000000: 8483 513d 3283 173b 5e33 103d 8c42 94bc
00000010: d73b 8bbc cb0d 613d 206d 45bd aca7 aabd
00000020: 65ed 803d 2945 a13c abc0 61bc 1d42 853b
00000030: a093 113d f6e9 a6bd dfd8 573d 733c 8c3d
00000040: 2a5c 0fbe 5502 45bd 4487 dd3b a881 b3bd
00000050: 4046 05bd 582d 9d3d 8b6c ccbd 2d3a 90bc
00000060: 46cf 79bd ee74 bcbd 2868 10bd 381c 8fb9
00000070: 51f7 233d fc18 9f3d b322 1abd ea61 17bd
00000080: 6216 4ebd fb2a 9f3c 254e d33b c16e 543d
00000090: 8d1f 823d 5763 bfbd 4c40 1e3d 414f 733c
000000a0: 800e 22bc 9be8 97bd b9fd cd3c 85d9 83bc
000000b0: fc30 9a3d e1f1 973d 00a6 8c3b 4a0e 113d
000000c0: 0c95 7abd f86c 3a3d 3ed8 543d ec3d 403d
000000d0: e5e4 8fbd 153c 963d 3b50 52bd 7714 633d
000000e0: 820e 2dbd 3187 e5bc ccfb f53c a991 26bc
000000f0: 9311 84bd 2acb 50bc ff6d 233d 190f 96bd
00000100: a003 4c3d 6cc6 3abd f2df d9bd cb55 f83c
00000110: 2763 21bd 9bc1 5fbd 4ba0 e93c 8c9e c1bc
00000120: 4ed9 4fbd a542 9bbd 1eb4 0abd 0616 3f3d
00000130: df08 bd3d 01e4 483b 9bf0 17bd 60b1 babd
00000140: 7764 8f3d bd37 e1bc b996 94bd 1150 90bd
00000150: 4a24 9a3d cae9 d9bb 3dd1 2a3d cc22 f4bb
00000160: be15 0bbd c162 a13b c102 19bd 4525 bfbd
00000170: abb3 4e3d e779 e1bd a878 5a3d adbf a13d
00000180: 644b e5bd 3f66 513c 9ee3 903d 0951 1f3d
00000190: 698e 293d 3b42 acbb 1e9b 48bd 65a1 d3bd
000001a0: 8a67 9fbc 7f81 e8bd 3288 c73b 5c7f d0bd
000001b0: 988d d4bc d0a6 94bb fe21 083d ca22 5b3d
000001c0: 6092 84bb 922d 043d b23a 0ebd 1fcd 963d
000001d0: f898 9dbc b705 36bb 701b cf3d 5a09 d83c
000001e0: 38a9 403d b750 a23d fc61 3dbd 7568 03be
000001f0: 4c2f 2d3d 62be b13c 4c9a 033d 39d6 23bd
00000200: 9c06 a13c 8ff2 8cbc f937 aebd a2fb a23d
00000210: 55c0 353d 92d5 b2bd 052d e03c 0958 25bd
00000220: fe68 7e3d bcf4 ce3b 2800 acbc 5318 b13c
00000230: a85e 63bd 3927 12be 3f99 213d 0b02 21bd
00000240: 083d 98bd dd44 efbc 7510 033c c703 3bbc
00000250: 075a 753d 14a2 f43c 6842 9fbd 9878 103d
00000260: 65e3 cabc e84b fdbc e772 76bd c895 c9bb
00000270: 94fa a23d e41a 243d 025a 3abc 8802 c53d
00000280: e3c4 15be 9594 59bd 95c1 553d 863c 483d
00000290: 8f9b 83bd 0aa4 a93c ba2c 69bd 6d73 163d
000002a0: 226f 17bd 3796 313b 2835 8f3d 78b1 e13d
000002b0: d063 98bc 5f95 af3c deb0 eabd faec 91bd
000002c0: 8b1f a7bd 8487 3e3c 561e 43bd 4401 4f3c
000002d0: dbea 51bd eb21 81bb af41 653d c9f3 d4bc
000002e0: ff73 5f3d 37dd 3bbd 21b1 81bd cd8f 88bd
000002f0: 4745 983d 7d5c 103d 0af2 193c 5395 8d3c
00000300: 9872 1dbd 97a7 b83d 9e4f cc3d fd9b c3bd
00000310: 732f 3abd 2aa8 c93c af64 05bc 8de0 6abd
00000320: 4927 8e3d 4d03 5dbd 65d8 b0bc 135d 9b3d
00000330: 3358 823d f245 aabd f8df 163e 931f efbc
00000340: 0965 943d d0b2 e03c 5210 a93d db9f 853d
00000350: c8e5 843d 2e1a e7bc 2aa5 ad3d 5546 df3c
00000360: 89ff a8bd 7efc 64bd 5c7a 8f3c bdac 97bd
00000370: 6214 ebbd 9846 bd3d 93af 653d ddb6 1f3d
00000380: 3283 88bc 3c03 29bd 8802 f23c 405e 3bbd
00000390: d6ec 93bc a2df d5bc a0be 643c 6042 20bc
000003a0: 9d74 883c bc50 fd3a 5fa2 a53c 2db2 6bbd
000003b0: dd56 2f3b 0110 2fbc 546f e43c 0c1f 2cbc
000003c0: 8ce0 e6bd b46c 473d f712 76bd e616 94bd
000003d0: d9d5 643d 8d4b 53bc eb88 143e 63c5 72bc
000003e0: 6875 73bd c437 6bbd 4d55 d13d 6f6a 0bbc
000003f0: d5e4 9c3d 20a3 64bd 613a 053d 8c92 273d

bias f4 [24]
0.053775292 -0.07843048 -0.015983593 0.014381014 -0.019328455 -0.019600915 -0.03544806 -0.06326148
0.017041968 -0.048158467 -0.060444683 -0.056717094 0.0027195022 0.030592354 0.05880509 0.05366983
-0.042262264 -0.0023840077 -0.025817305 0.008604617 -0.08759114 -0.04295342 0.019530246 0.035549354
00000000: 7b43 5c3d 29a0 a0bd 06f0 82bc 589e 6b3c
00000010: b556 9ebc 1992 a0bc fc31 11bd 3c8f 81bd
00000020: 999b 8b3c d041 45bd d894 77bd 2f50 68bd
00000030: ad39 323b d19c fa3c 9bdd 703d e5d4 5b3d
00000040: 321b 2dbd 033d 1cbb d07e d3bc 61fa 0c3c
00000050: fc62 b3bd edef 2fbd e5fd 9f3c 339c 113d

weight f4 [72, 144]
0.0066327285 0.040796116 0.0756405 -0.009330438 -0.019266188 0.023262534 -0.07981392 -0.07527162
0.0049075806 0.065735675 -0.024231713 0.025089396 0.06531278 0.10856222 0.07241007 0.058823746
-0.09237948 0.05044755 -0.043898515 -0.016901374 -0.015333019 0.020388708 -0.011496946 -0.09514891
-0.057655923 0.023042494 -0.054048512 -0.0019204626 -0.011289445 -0.02462892 -0.052461058 0.09258598
0.05527734 -0.07091797 0.08499603 -0.027148664 -0.065655045 -0.021131834 0.033023823 0.057035267
0.01434335 -0.1572881 -0.042122137 0.0359585 0.05247754 -0.08286177 0.14563213 0.03746202
0.0017201256 -0.13364372 0.03143998 -0.07089752 -0.072039835 -0.05022958 -0.094145685 -0.020558508
-0.095591 0.023688281 0.06848068 0.08894476 -0.019009419 -0.06692207 -0.09770546 0.04688994
-0.005532583 0.06384972 -0.021756046 0.0669429 0.045876257 -0.036154494 0.03053374 -0.0021201428
0.08058227 0.04501349 0.026881875 -0.027416993 0.029745601 -0.037081134 0.025054153 -0.118530184
-0.053716958 -0.050381232 0.027978752 0.023619518 0.0994875 0.031110061 0.00879569 0.06702384
-0.028700452 -0.068109654 -0.05739012 0.09885826 -0.012329922 -0.0059909234 -0.06190493 -0.047206722
-0.090110436 -0.019725088 0.02143565 0.026444953 -0.0018677139 -0.045818947 0.03987824 0.05051996
0.05132697 0.040253215 0.08168844 0.014855318 0.018167932 0.038088888 0.077323064 0.06317553
-0.070669375 0.06945415 -0.031779412 -0.07651936 -0.025186352 0.043478586 -0.07355732 -0.058332928
-0.019729037 -0.0790026 -0.061312918 0.015893133 -0.047643464 -0.03509438 0.012717259 -0.09855624
-0.035227995 0.039505307 0.072384365 0.036876954 -0.060360968 0.04256717 -0.008799773 0.08490314
-0.09265762 0.010336815 -0.09467488 0.008303757 -0.05788087 -0.029488554 -0.020549072 0.04294529
0.04074696 -0.017529748 0.0665234 0.051063806 0.031699523 0.06850304 -0.0030811052 -0.016648617
0.07463499 -0.048713595 0.06652595 -0.09764568 -0.021777466 0.10950692 0.08652394 -0.063190654
-0.17506242 0.043547306 -0.03593303 0.057590414 0.020471329 0.039071564 0.05677004 -0.0955779
-0.13858832 -0.06692184 -0.022360213 0.0064097685 0.09106019 0.002867709 -0.022244433 0.0997763
-0.046419233 -0.009516519 0.04350198 0.07135946 -0.0339983 0.09336822 0.05033446 0.064514175
-0.1184009 -0.10193538 0.009333976 0.007837245 -0.037956487 -0.072217636 0.09577698 -0.086124934
0.115213245 -0.10479454 -0.049165532 -0.0632339 0.012296133 0.0125100305 -0.10707643 -0.08155782
-0.013836813 0.05129411 0.08082376 0.0786426 0.075599805 0.042630475 -0.08903511 0.03512423
0.06276611 0.14272133 0.021918803 0.0113101825 0.06976055 -0.029679786 0.030454649 -0.14870246
0.00069869467 -0.009065206 0.07616832 -0.09490545 -0.053859767 -0.07461675 0.06399661 -0.13308193
0.030241886 0.05082648 0.008239694 -0.04060395 0.08654256 0.08690226 -0.02379235 0.03898252
-0.13351852 0.077002846 -0.03372449 0.086114734 0.017451944 -0.0614498 0.0009661392 -0.0028361008
-0.09083757 -0.013878423 0.06068354 -0.080011435 -0.0024793649 0.057469174 0.04532612 -0.079548575
-0.0023967978 -0.058638733 0.038339056 -0.051081967 0.025458295 -0.021407885 0.06480327 -0.05542876
00000000: 5c57 d93b d419 273d 68e9 9a3d b2de 18bc
00000010: 20d4 9dbc 1291 be3c 7b75 a3bd 0228 9abd
00000020: c5cf a03b 6da0 863d 9681 c6bc 4788 cd3c
00000030: b5c2 853d df55 de3d bb4b 943d 2bf1 703d
00000040: 7431 bdbd 17a2 4e3d eece 33bd c074 8abc
00000050: 5837 7bbc 3806 a73c b05d 3cbc 6fdd c2bd
00000060: 9e28 6cbd 9dc3 bc3c f961 5dbd 08b8 fbba
00000070: 5df7 38bc 97c2 c9bc 68e1 56bd b89d bd3d
00000080: 7e6a 623d 713d 91bd 6612 ae3d e066 debc
00000090: 2776 86bd ab1c adbc fd43 073d d09d 693d
000000a0: 5f00 6b3c 2210 21be 4388 2cbd 3849 133d
000000b0: b0f2 563d 6fb3 a9bd 9720 153e c671 193d
000000c0: d675 e13a e6d9 08be 35c7 003d b832 91bd
000000d0: 9f89 93bd 88bd 4dbd 74cf c0bd 516a a8bc
000000e0: 37c5 c3bd ed0d c23c 993f 8c3d ac28 b63d
000000f0: a4b9 9bbc 700e 89bd cd19 c8bd aa0f 403d
00000100: ac4a b5bb a4c3 823d bc39 b2bc 5c19 893d
00000110: bee8 3b3d bc16 14bd e521 fa3c 18f2 0abb
00000120: 5108 a53d 1160 383d 6137 dc3c 9a99 e0bc
00000130: 0cad f33c 63e2 17bd 5e3e cd3c f4bf f2bd
00000140: 5006 5cbd 8d5c 4ebd b233 e53c b87d c13c
00000150: 1ac0 cb3d 87da fe3c cc1b 103c cc43 893d
00000160: 361d ebbc 137d 8bbd e711 6bbd 3376 ca3d
00000170: 7103 4abc 824f c4bb 0690 7dbd d65b 41bd
00000180: d28b b8bd 8296 a1bc d199 af3c 16a3 d83c
00000190: 14ce f4ba a6ac 3bbd 5e57 233d 04ee 4e3d
000001a0: 3b3c 523d 8ee0 243d 454c a73d b863 733c
000001b0: ead4 943c 1803 1c3d 8e5b 9e3d 2c62 813d
000001c0: 1bbb 90bd fa3d 8e3d 212b 02bd 2fb6 9cbd
000001d0: 9c53 cebc 9a16 323d 38a5 96bd 82ee 6ebd
000001e0: ca9e a1bc 1dcc a1bd 4123 7bbd 5132 823c
000001f0: cb25 43bd 20bf 0fbd 0d5c 503c dbd7 c9bd
00000200: 3b4b 10bd 51d0 213d 413e 943d 4a0c 173d
00000210: 103d 77bd ea5a 2e3d ec2c 10bc b3e1 ad3d
00000220: 47c3 bdbd bf5b 293c e7e4 c1bd 7b0c 083c
00000230: 7e14 6dbd fb91 f1bc 8756 a8bc 67e7 2f3d
00000240: 49e6 263d 8c9a 8fbc 6c3d 883d 4828 513d
00000250: 5cd7 013d 524b 8c3d 5eec 49bb ae62 88bc
00000260: 3bda 983d e887 47bd c23e 883d 75fa c7bd
00000270: a866 b2bc 2a45 e03d 7733 b13d 1a6a 81bd
00000280: 9043 33be a95e 323d 832e 13bd ede3 6b3d
00000290: 7db3 a73c 8109 203d b487 683d 59be c3bd
000002a0: 19ea 0dbe 510e 89bd c42c b7bc 0909 d23b
000002b0: c47d ba3d 2cf0 3b3b f539 b6bc 8457 cc3d
000002c0: 1822 3ebd 2ceb 1bbc 222f 323d e924 923d
000002d0: cd41 0bbd d637 bf3d 822b 4e3d 0220 843d
000002e0: 2c7c f2bd 7fc3 d0bd 88ed 183c ca67 003c
000002f0: 4378 1bbd d7e6 93bd b926 c43d 4562 b0bd
00000300: ecf4 eb3d 859e d6bd cc61 49bd c680 81bd
00000310: b875 493c dff6 4c3c e34a dbbd c907 a7bd
00000320: cdb3 62bc c619 523d ed86 a53d 5f0f a13d
00000330: 12d4 9a3d 4b9d 2e3d 0a58 b6bd 6dde 0f3d
00000340: 858b 803d 8a25 123e 108f b33c 584e 393c
00000350: 9fde 8e3d 0623 f3bc 077c f93c 7545 18be
00000360: 9b28 373a 3b86 14bc 23fe 9b3d ca5d c2bd
00000370: 0f9c 5cbd abd0 98bd a810 833d a146 08be
00000380: d5bd f73c 6d2f 503d c8ff 063c 5450 26bd
00000390: 3a3d b13d d0f9 b13d 2de8 c2bc 23ac 1f3d
000003a0: 14b9 08be abb3 9d3d b122 0abd ec5c b03d
000003b0: 61f7 8e3c c9b2 7bbd 8144 7d3a e0dd 39bb
000003c0: 0c09 babd 5362 63bc 4e8f 783d 09dd a3bd
000003d0: d77c 22bb cc64 6b3d e2a7 393d 5dea a2bd
000003e0: 9813 1dbb 2b2f 70bd 6a09 1d3d 533b 51bd
000003f0: ea8d d03c 975f afbc 94b7 843d 4409 63bd

bias f4 [72]
-0.07272881 0.011594399 -0.026459731 0.014819983 -0.09136916 -0.0038392856 -0.013434665 0.026697936
0.004184404 0.06320133 -0.08167034 -0.008992633 -0.07681416 0.07561035 -0.048841882 -0.04184911
0.0076431367 -0.05063591 0.050987273 0.056269072 0.01855728 0.0008928341 0.03794092 0.041297846
-0.0038626555 0.07225943 -0.042902905 -0.028555851 -0.021635298 -0.07904354 -0.073270075 -0.05958902
0.030130751 0.018723145 0.059750184 -0.035998214 0.04585122 0.041909587 0.045636494 0.0643446
0.09142221 -0.04610012 0.0681866 0.059654422 0.053962942 -0.057286065 -0.0687441 -0.04466833
0.068867214 -0.07263784 0.041141983 0.024770841 0.026140373 0.06273085 -0.017654346 0.04151105
0.05995126 0.06961807 0.06445554 0.08665073 0.0711584 -0.038087692 -0.043903276 -0.07552445
0.036796384 -0.007407281 -0.047343742 -0.028173104 -0.06118833 0.016338913 -0.06762996 0.050473433
00000000: d8f2 94bd 6ff6 3d3c 14c2 d8bc 84cf 723c
00000010: c11f bbbd 869c 7bbb 121d 5cbc a1b5 da3c
00000020: 531d 893b b36f 813d c742 a7bd d655 13bc
00000030: be50 9dbd 99d9 9a3d 6d0e 48bd f969 2bbd
00000040: 4773 fa3b 9a67 4fbd 08d8 503d 667a 663d
00000050: 7005 983c 150d 6a3a f067 1b3d ee27 293d
00000060: 9b24 7dbb c1fc 933d f5ba 2fbd f6ed e9bc
00000070: 823c b1bc 94e1 a1bd 9f0e 96bd 9e13 74bd
00000080: c4d4 f63c 4861 993c 9cbc 743d dd72 13bd
00000090: 7dce 3b3d 63a9 2b3d 55ed 3a3d 1ac7 833d
000000a0: 913b bb3d 7bd3 3cbd 6ba5 8b3d 3258 743d
000000b0: 3f08 5d3d cba4 6abd b5c9 8cbd 24f6 36bd
000000c0: 410a 8d3d 26c3 94bd 7f84 283d 38ec ca3c
000000d0: 5624 d63c 0879 803d d99f 90bc 7e07 2a3d
000000e0: 748f 753d eb93 8e3d 4401 843d f075 b13d
000000f0: 7fbb 913d d701 1cbd ecd3 33bd 90ac 9abd
00000100: ceb7 163d c7b8 f2bb 83eb 41bd 48cb e6bc
00000110: 9da0 7abd 2fd9 853c 9481 8abd 3bbd 4e3d

weight f4 [36, 72]
0.019890375 0.22051914 -0.06455985 -0.16068903 -0.08389019 -0.015433971 -0.092748314 -0.090619035
0.079592705 0.094699375 0.15223284 -0.009801918 -0.080418445 0.015651697 0.07742591 0.11179615
-0.16314012 -0.041432034 -0.086561635 -0.061235107 -0.046458066 -0.14444788 0.040564507 0.08889397
-0.036752738 0.044217836 -0.0957055 -0.04781564 -0.062901795 -0.06748312 0.0072205095 -0.09523677
0.034378957 0.0035359159 0.10483396 -0.10428987 0.010952297 0.14686571 -0.0796797 0.04812675
-0.05551581 0.11972316 0.103581086 0.06128663 -0.071573175 0.08488765 0.024539275 -0.057632938
0.040910125 0.121621676 -0.054906726 -0.015079382 0.13348801 -0.08514438 0.1933915 0.12382051
-0.09268611 0.09253466 0.10158115 0.1679389 0.055782788 0.0014592126 -0.09983552 0.05599035
-0.010921463 0.038812753 0.14600034 0.12733634 -0.024495462 0.031691007 -0.089670174 -0.03180052
-0.015818581 -0.18949391 0.07807454 -0.04270054 -0.028366469 0.021335326 0.07620476 0.1482674
-0.06654915 -0.14693007 -0.10536189 0.021011313 -0.036091536 -0.017438944 -0.0009966716 -0.021855347
0.07132939 0.06923635 0.100246966 -0.10796944 0.023930006 0.063392855 0.039190035 -0.017251678
-0.0049336706 0.04947279 0.008212598 0.1133993 0.05511689 -0.04363825 0.20796086 0.03925623
0.10073244 0.06664084 -0.06770183 0.041628864 0.18716621 -0.059251234 -0.14021567 0.0798314
0.0676581 0.088931456 -0.11578426 0.06548286 -0.113877706 0.038087457 0.05858114 0.100209236
0.029295258 -0.07842948 0.05703913 -0.022667358 -0.12376722 -0.00656614 -0.13449115 -0.042747535
-0.04086794 0.1265473 -0.10321768 -0.11906152 -0.09745292 -0.15004542 -0.019665685 0.006776954
-0.02348976 -0.12760866 -0.059730373 0.07049864 0.0029344216 0.18967229 -0.015266545 -0.05180204
0.042336117 0.10840825 0.09246157 0.017730989 -0.045667462 -0.08016226 -0.13509701 -0.095950134
-0.0066630873 -0.0001910666 0.19523928 0.066763565 0.04930273 0.03292522 0.01213824 -0.053101767
-0.08155491 0.028281663 0.10766991 -0.10300673 0.07042952 -0.15415454 -0.14177966 -0.06993628
-0.06750289 -0.077894084 -0.0332864 0.052233286 -0.13769414 -0.057532072 -0.10729241 -0.06563532
-0.037205204 -0.09786554 -0.06896611 -0.07982595 -0.06336757 0.06428828 -0.09795342 -0.06611844
-0.0764569 0.045884833 -0.02332366 -0.09649178 0.023119535 0.07028698 0.0428591 0.08576846
0.1066307 -0.03633871 0.044742588 0.08658916 0.15584701 -0.05408556 0.18243527 -0.145949
-0.031944424 0.020277325 -0.13568085 0.062018212 0.033254456 0.004288422 -0.04961412 -0.099274755
0.036200378 -0.04213516 0.043426413 0.093297064 0.047408164 0.009463829 -0.04702325 -0.04882379
-0.14020334 -0.14053626 -0.077906065 -0.19974482 -0.049127713 -0.05192631 0.004717611 -0.01924826
0.08918529 0.022638991 0.043221053 -0.03816547 -0.08255775 0.0037790155 0.031232703 0.11376468
-0.11115531 -0.06988731 0.029499387 -0.10728798 0.0800697 -0.059540637 -0.052364316 -0.05684678
0.05935821 -0.027696041 0.10282606 -0.06434538 0.006440484 0.039512873 0.0484504 -0.09326194
-0.01647606 -0.062665544 0.18082917 -0.010629275 -0.11205119 0.014965125 0.029699014 0.1002155
00000000: 24f1 a23c c5cf 613e f437 84bd aa8b 24be
00000010: 9fce abbd c4de 7cbc d4f2 bdbd 7996 b9bd
00000020: 8001 a33d bff1 c13d ede2 1b3e 3998 20bc
00000030: 6db2 a4bd fd37 803c 7a91 9e3d 61f5 e43d
00000040: 340e 27be a3b4 29bd 3a47 b1bd aad1 7abd
00000050: d04a 3ebd 25ea 13be f826 263d 0b0e b63d
00000060: 0a8a 16bd c31d 353d 3f01 c4bd 55da 43bd
00000070: a8d2 80bd 9734 8abd 069a ec3b 7f0b c3bd
00000080: f3d0 0c3d d3ba 673b 30b3 d63d ed95 d5bd
00000090: 4371 333c f763 163e 1c2f a3bd 8e20 453d
000000a0: 8c64 63bd 6b31 f53d 5222 d43d b007 7b3d
000000b0: f594 92bd 94d9 ad3d 9706 c93c 8410 6cbd
000000c0: 6091 273d c914 f93d e0e5 60bd 830f 77bc
000000d0: 15b1 083e 2d60 aebd 6c08 463e 9c95 fd3d
000000e0: 37d2 bdbd d082 bd3d c709 d03d 2df8 2b3e
000000f0: 7e7c 643d 0d43 bf3a 9176 ccbd 2356 653d
00000100: f0ef 32bc 1ffa 1e3d 1d81 153e 7564 023e
00000110: b5aa c8bc 6ece 013d ffa4 b7bd 4341 02bd
00000120: f895 81bc b10a 42be 8be5 9f3d c3e6 2ebd
00000130: cc60 e8bc 6cc7 ae3c 3e11 9c3d 69d3 173e
00000140: ec4a 88bd d674 16be f9c7 d7bd eb1f ac3c
00000150: b8d4 13bd 1edc 8ebc c0a2 82ba fc09 b3bc
00000160: 2515 923d cacb 8d3d 484e cd3d 151f ddbd
00000170: dc08 c43c 1dd4 813d bb85 203d 6453 8dbc
00000180: a1aa a1bb fba3 4a3d 228e 063c e43d e83d
00000190: 40c2 613d 06be 32bd b1f3 543e 24cb 203d
000001a0: cf4c ce3d fe7a 883d 42a7 8abd 0783 2a3d
000001b0: 80a8 3f3e 6cb1 72bd b294 0fbe a57e a33d
000001c0: 5490 8a3d b221 b63d 4c20 edbd e11b 863d
000001d0: b738 e9bd 9801 1c3d c7f2 6f3d 803a cd3d
000001e0: 9cfc ef3c a39f a0bd dda1 693d e5b0 b9bc
000001f0: ab79 fdbd c628 d7bb 0cb8 09be 0a18 2fbd
00000200: 2465 27bd 9e95 013e ca63 d3bd 87d6 f3bd
00000210: 6695 c7bd 82a5 19be ee19 a1bc 3611 de3b
00000220: 996d c0bc d8ab 02be d6a7 74bd 9761 903d
00000230: 6d4f 403b 7439 423e 8820 7abc 602e 54bd
00000240: a368 2d3d 2505 de3d 7e5c bd3d 9440 913c
00000250: ce0d 3bbd 1c2c a4bd df56 0abe 8181 c4bd
00000260: 0756 dabb 0d59 48b9 ceec 473e 56bb 883d
00000270: a9f1 493d 98dc 063d 78df 463c 3d81 59bd
00000280: 4306 a7bd f2ae e73c 0b82 dc3d 31f5 d2bd
00000290: 5a3d 903d b0da 1dbe b02e 11be c13a 8fbd
000002a0: f53e 8abd ef86 9fbd 5257 08bd 92f2 553d
000002b0: b1ff 0cbe c0a6 6bbd 20bc dbbd d06b 86bd
000002c0: 7c64 18bd ba6d c8bd 1b3e 8dbd ca7b a3bd
000002d0: dbc6 81bd 93a9 833d cd9b c8bd 1b69 87bd
000002e0: 6f95 9cbd bcf1 3b3d 4311 bfbc 7b9d c5bd
000002f0: 2e65 bd3c 9ff2 8f3d 068d 2f3d 60a7 af3d
00000300: 3261 da3d e6d7 14bd 0144 373d a855 b13d
00000310: 5c96 1f3e d288 5dbd 50d0 3a3e a873 15be
00000320: 28d8 02bd a21c a63c ecef 0abe cf06 7e3d
00000330: d335 083d e485 8c3b 2d38 4bbd 9050 cbbd
00000340: d946 143d eb95 2cbd e5df 313d 8812 bf3d
00000350: 102f 423d 2d0e 1b3c 749b 40bd 74fb 47bd
00000360: 7791 0fbe bde8 0fbe 378d 9fbd e889 4cbe
00000370: 243a 49bd afb0 54bd 3096 9a3b 87ae 9dbc
00000380: c7a6 b63d 6875 b93c 8f08 313d 6553 1cbd
00000390: 0a14 a9bd 5ca9 773b badb ff3c 75fd e83d
000003a0: 65a5 e3bd 1421 8fbd b3a8 f13c cdb9 dbbd
000003b0: 95fb a33d e2e0 73bd f77b 56bd 2bd8 68bd
000003c0: 9821 733d cfe2 e2bc 7896 d23d 83c7 83bd
000003d0: b20a d33b 40d8 213d ed73 463d 1e00 bfbd
000003e0: cdf8 86bc cb56 80bd 482b 393e 6926 2ebc
000003f0: 187b e5bd 4930 753c 594b f33c c93d cd3d
