net_and_train/version3/net.pkl (torch_old, 121705 bytes, 20 tensors)

weight f4 [4, 2, 3, 3]
000000 d7 e4 7b bc a3 0a b5 bd e4 22 0f 3e c8 9f 98 bc
       -0.015374384 -0.088399194 0.13978153 -0.018630877
000010 9f 78 9f bd b4 66 0b 3e 18 3c 49 3d 01 01 71 bd
       -0.077866785 0.13613397 0.049129575 -0.058838848
000020 ba e8 84 bd 3b af 2a be 9e d4 b0 3d 89 10 33 3e
       -0.064897016 -0.16668408 0.086343035 0.17486776
000030 fd 69 11 be 99 0d 26 bd 99 54 46 3e 8e 97 7c bd
       -0.14200588 -0.04054031 0.19368209 -0.06166797
000040 22 f6 b7 3c 9b 8a 21 3d 0d 70 02 3e 0b 4e af bd
       0.022456232 0.039438825 0.12738056 -0.085598074
000050 1c e4 28 bd 24 14 a8 bd b2 ee ce bd 23 ad 66 3e
       -0.041233167 -0.082069665 -0.10104121 0.22526984
000060 0e 0e 67 be 20 e5 12 be f9 cf bf 3d 9f 81 eb bd
       -0.22563955 -0.14345217 0.093658395 -0.11499333
000070 72 09 b1 bd 77 84 5b 3e 0d 79 74 bc fe 07 a0 be
       -0.0864438 0.2143725 -0.014921439 -0.31256098
000080 2b 68 c3 3d 1a 87 20 be 09 5b fa bd 6f 08 15 be
       0.09541353 -0.15676537 -0.12224395 -0.14553998
000090 8f 5e 41 3e 99 f9 0c 3e ef 65 ae bb 51 84 bb 3d
       0.18883727 0.13767089 -0.00532221 0.09156097
0000a0 f4 9d 92 3c 02 9c aa 3d 76 77 35 be 76 77 48 be
       0.017897584 0.083305374 -0.17721352 -0.1957682
0000b0 02 17 e2 3b 76 81 d0 3d bc 14 f8 3d 0f d3 4e 3e
       0.0068997154 0.10180943 0.1211333 0.201977
0000c0 a4 c8 44 be f3 2f d8 3d d7 79 e6 bd 70 be ed bd
       -0.19217163 0.105560206 -0.11253708 -0.11608589
0000d0 99 c0 54 be bc 0f 40 be 41 29 26 be f4 06 71 3e
       -0.20776595 -0.18756002 -0.16226675 0.23537809
0000e0 c9 f4 6f 3e 14 74 54 3e 63 5b ce 3d 05 7c e8 3d
       0.23433222 0.20747405 0.100760244 0.1135178
0000f0 5e 96 66 be 15 18 77 bc dc 90 13 be 3c 9e b1 bd
       -0.22518298 -0.015081425 -0.14410728 -0.08672759
000100 ca e4 21 be 26 02 70 bd 56 77 54 be 9e e9 2d 3d
       -0.15809932 -0.0585958 -0.20748648 0.042459123
000110 b0 19 8c 3d 3d a3 14 be c6 4e 43 3e 11 9a e8 bd
       0.06840837 -0.14515395 0.19073018 -0.11357511

bias f4 [4]
000000 a8 b7 10 be fb d3 87 3d 35 06 fd 3d 35 85 53 3e
       -0.1413256 0.06632229 0.123546995 0.20656283

weight f4 [8, 4, 3, 3]
000000 5b c6 b8 3d 4d 93 43 be f1 68 2d 3d 4d 95 5f 3e
       0.09022208 -0.1909916 0.042336408 0.21834297
000010 da b4 5f be 97 e9 a9 bd 52 55 54 bd 42 87 90 bd
       -0.21846333 -0.08296507 -0.05183918 -0.070570484
000020 53 61 cb bc 86 89 7f be 66 8d c4 bd 72 59 18 bc
       -0.024826681 -0.24954805 -0.09597282 -0.009298669
000030 a4 51 19 be 92 70 ff 3d d8 a6 d6 3c 3b 2c 8b be
       -0.1497255 0.12472643 0.026202604 -0.27182183
000040 ad 8a 14 3e 5c cc 61 3e 55 36 33 ba fe 54 73 3d
       0.14506026 0.22050613 -0.0006836404 0.059407227
000050 ab ec 82 bd da b6 82 3c 22 01 0f bc 92 6c 50 bd
       -0.06392797 0.015956331 -0.008728297 -0.05088479
000060 4b b3 6d 3e 24 5b a7 3c 4e 84 98 3c e1 2e d1 3b
       0.23212926 0.020429201 0.018617775 0.006383762
000070 8c 9d fd bd b8 74 b9 3d 5b 23 16 3e 8d d4 ed bc
       -0.12383565 0.090554655 0.14661925 -0.029032016
000080 68 07 38 be 1b f2 04 3e 4e 6b ca 3b 34 94 e5 bd
       -0.17971575 0.12982981 0.0061773425 -0.11209908
000090 ce 54 5e 3e 4e 30 84 3e 1c 36 91 bd c1 0f 69 3e
       0.21712038 0.25818104 -0.07090399 0.22759916
0000a0 a2 d6 9a 3e c1 e1 c0 3d be 2f e4 3d a6 45 53 3d
       0.30241877 0.09418059 0.111419186 0.051580094
0000b0 a1 02 02 3e ca 98 f4 bd b6 48 aa 3d 19 7a 6a 3d
       0.12696315 -0.11943205 0.0831465 0.057245348
0000c0 0a 5d f4 bd e1 3e 7a bd 08 70 f5 bd 87 a3 22 3e
       -0.11931808 -0.061095122 -0.11984259 0.15882693
0000d0 44 81 b2 3e 92 32 50 ba 8e 42 d1 3d b1 6c 5c 3d
       0.34864247 -0.0007942106 0.102177724 0.053814594
0000e0 30 cd 6a be dc 89 a0 bd bd 96 f0 3d 81 c0 27 3d
       -0.22929835 -0.078387946 0.11747501 0.04095507
0000f0 8d 44 15 3e 7e e4 b0 bd 57 cf 7a 3d 5e a4 54 ba
       0.14576931 -0.086373314 0.06123289 -0.0008111651
000100 55 2f 21 3e e1 65 c8 3d 60 59 db bd 24 f3 aa bd
       0.15740712 0.09785057 -0.10710406 -0.08347157
000110 f2 eb 56 3d 33 96 91 bd b7 9d aa bd 0e a9 47 3d
       0.05247111 -0.07108726 -0.08330863 0.048745207
000120 82 b7 7c bd d4 d5 16 be af a1 e4 bc 79 4e 8d be
       -0.061698444 -0.14730006 -0.027909128 -0.27598932
000130 07 6c 16 bd 4e 35 4d 3d 7a 7d 5b be 1e 86 37 be
       -0.036724117 0.050099663 -0.21434584 -0.17922255
000140 5c 14 77 3e a3 d5 1d be 4c 0e 2f be d6 3b 45 bc
       0.2412886 -0.15413527 -0.17095298 -0.012038192
000150 7e 60 f6 3c 2c d5 de 3c fd bf d6 bd fa 96 0e be
       0.030075308 0.027201258 -0.104858376 -0.1392478
000160 e3 c5 25 3d e0 7d 06 3e 6a 4f f3 bd e5 2c d3 bd
       0.040471923 0.13133955 -0.118803814 -0.10311297
000170 cb c4 f4 3d ca 5d 16 be 43 dc ab 3d 1b 9a 23 3e
       0.11951598 -0.14684215 0.08391621 0.15976755
000180 1d 72 77 be 57 95 09 be 1c ea 1a 3d e2 e9 e3 3d
       -0.24164625 -0.13435875 0.03782092 0.11128594
000190 03 38 4b be a1 1f 33 3e 1f f5 e1 ba 80 49 ba bd
       -0.19845586 0.17492534 -0.001723919 -0.0909605
0001a0 5f e8 bd 3c cc 10 0d 3e 1c fc 82 bb 03 68 56 3d
       0.023182092 0.13775939 -0.003997339 0.052345287
0001b0 68 f4 54 3e ff 3b 2b 3d 22 d4 a8 bd 58 2f 43 3d
       0.20796359 0.041805264 -0.08243586 0.047652572
0001c0 c9 93 0e 3e ed 6b 31 be be a8 53 3e ae a5 8a bd
       0.13923563 -0.17326327 0.20669839 -0.06769882
0001d0 7b a0 7e bd c0 97 9e 3c 1e 41 b7 3d 80 27 3d bc
       -0.062164765 0.01935947 0.08947967 -0.011545062
0001e0 6f 42 0a bc 20 cb 8c 3d 93 86 cd 3d 45 1b 41 be
       -0.008438691 0.068746805 0.100354336 -0.18858059
0001f0 de cd da bd fb 44 6f 3d 36 dc 24 bb 3f f0 fd bd
       -0.10683797 0.058415394 -0.002515567 -0.12399339
000200 1b 85 2d be 4d 5f 05 bd 1d de cd 3d fa 85 00 bd
       -0.16945307 -0.03256159 0.1005213 -0.03137777
000210 b6 ac 21 3e e8 3e 16 bd 4a b1 dd 3d 40 fa d0 3d
       0.1578854 -0.036681086 0.10824831 0.102039814
000220 fc 60 42 be c6 c8 03 3e e0 eb 87 bd bd 25 a7 bc
       -0.18982309 0.12869558 -0.066367865 -0.020403737
000230 cd ed 5f bd 8c 2f 02 3e ea 4b 0f be b3 4e 96 bd
       -0.054670144 0.1271345 -0.13993803 -0.073392294
000240 da c0 32 be 88 ee b9 3d af 8b 00 3e 9a 90 38 be
       -0.1745638 0.09078699 0.12553285 -0.18023911
000250 06 52 a4 3d f2 78 15 3e 08 4e de bd 44 63 1e 3d
       0.08023457 0.14596918 -0.10854727 0.038668886
000260 b6 33 a6 3d c6 50 9c 3d 1d e3 ce bd 52 a8 67 bc
       0.08115332 0.07632594 -0.10101912 -0.014139252
000270 dc a7 90 3c a9 98 7f bd 67 78 40 3e f1 1d 95 bd
       0.017658167 -0.062401447 0.1879593 -0.072811015
000280 3a ff 99 3e 6b d9 08 3e b3 d9 d3 3d 7f b2 3d 3e
       0.30077535 0.13364188 0.10344257 0.18525122
000290 e4 8b fe bd 64 cd 14 3e c3 df 06 3d 47 9f ae bc
       -0.12429026 0.14531475 0.03292824 -0.021316184
0002a0 66 79 29 3e fc 9b 65 bc 8f 30 2a 3c 46 82 c9 3d
       0.16550216 -0.01401424 0.010387554 0.09839301
0002b0 b6 14 9c 3d e9 e1 24 3e 24 62 f0 bc 8a a8 f2 bd
       0.07621138 0.16101803 -0.029343672 -0.118485525
0002c0 11 3b 16 bd 61 1d 09 3e da 0c 22 3e 07 8f e0 3d
       -0.036677424 0.13390113 0.15825215 0.1096478
0002d0 a9 83 88 3c 99 da 81 bd b4 c0 28 bd f4 f0 e9 bc
       0.016664343 -0.06340522 -0.0411994 -0.028557278
0002e0 a9 2f 98 be de 97 56 3e da ec 49 3b 5b 4b ee bd
       -0.29723862 0.2095637 0.003081134 -0.11635467
0002f0 59 a6 88 3e 95 4c 46 3e 4d dd 1e bd 0b f0 85 3c
       0.26689413 0.19365151 -0.038785268 0.016349813
000300 76 e5 d4 3c 89 91 b4 3d 66 67 79 bb 19 c7 04 be
       0.025988322 0.08816821 -0.0038056015 -0.12966575
000310 73 5e b2 3e 1c e2 63 3d 20 67 84 bd fc 77 35 3e
       0.34837684 0.055635557 -0.06464982 0.17721552
000320 9f 09 1d 3e 26 95 67 bd 78 a5 6b 3c 4b 3e de bd
       0.15335701 -0.056538723 0.014382713 -0.10851725
000330 d9 a0 3b bc fd a2 17 3d 7c 82 26 3d 8a f7 f0 3c
       -0.011451923 0.037020672 0.040651783 0.02941491
000340 ba ca bf bc e7 9d 4f 3e 64 b5 2a 3e fc 11 12 3e
       -0.023412097 0.20275079 0.16670758 0.14264673
000350 98 57 1e 3e 12 f9 21 be 39 ba ae 3d 70 e8 e7 3d
       0.15463102 -0.15817669 0.08531613 0.11323631
000360 a5 2a 87 3d ac fa c0 bd 7e 4f 6b 3d 7d eb e2 3d
       0.06599931 -0.09422812 0.057448857 0.11080072
000370 7b b1 52 be fc 25 a9 3d ab df b3 bd 2f 78 8b bd
       -0.20575516 0.08259198 -0.08782896 -0.068100326
000380 32 19 5e 3c 1c 77 08 3e 20 c4 44 bd 55 73 86 3d
       0.013555812 0.13326687 -0.048038602 0.065649666
000390 8b b0 88 be fe 8e e6 3d 2a 53 fe 3d 7e 46 6c bd
       -0.26697192 0.11257742 0.12418206 -0.057684414
0003a0 34 eb 46 3e 38 07 ab 3a f0 03 bb bd 9c 42 b7 3e
       0.1942566 0.0013048416 -0.091316104 0.35793006
0003b0 02 e3 9b 3e 55 f2 74 3d f1 e2 b6 bd 02 09 80 3d
       0.3044663 0.05980142 -0.089300044 0.06251718
0003c0 c3 35 22 3e fb 86 47 3b e2 97 3e 3d ff f4 fa bd
       0.15840821 0.0030445445 0.046531565 -0.122537605
0003d0 56 62 ba 3d 2a d9 36 3e 50 e6 ae bd 76 be f4 3c
       0.09100787 0.17856279 -0.085400224 0.029875975
0003e0 89 25 1c 3e 45 68 09 be 5f 91 24 be d1 f2 f6 bd
       0.15248694 -0.13418682 -0.1607108 -0.12058032
0003f0 8e 5c bf 3c 12 af 2d 3d f5 39 e0 bd 72 0c 60 bd
       0.023359563 0.04240329 -0.109485544 -0.05469937

bias f4 [8]
000000 fa 14 4f 3e 07 3d 9f bc 52 7b f4 3c 80 fe 7d bb
       0.20222846 -0.01943828 0.02984396 -0.003875643
000010 72 2f f6 bd 03 c0 6a 3e 9d 52 d1 bd 5a 6e b4 3b
       -0.12020768 0.22924809 -0.10220835 0.005506319

weight f4 [12, 8, 3, 3]
000000 3d 2e 8f 3b dd f4 0d 3c 4e e3 05 be 09 36 ff 3d
       0.0043695257 0.008664337 -0.13074991 0.12461478
000010 6c 5b a8 bd fc 17 03 bd 6f 1e 96 3d 60 18 e9 bd
       -0.08220562 -0.032005295 0.073300235 -0.11381602
000020 81 a5 ea bd fe 51 5a bc 2f ee 45 3d 08 72 01 be
       -0.114573486 -0.0133252125 0.048322853 -0.12641156
000030 db 09 bb 3d 2e c7 26 3e 3f e1 24 bd f7 06 b3 bd
       0.09132739 0.16286919 -0.040253874 -0.08741563
000040 a8 ea e8 3d 4b 43 db bc 20 0e 1a be 40 3b aa bd
       0.11372882 -0.026765486 -0.15044451 -0.08312082
000050 6c 6a 8e 3d d8 e0 a6 3d ea cb 10 3e e9 7c 46 3c
       0.06953892 0.08148354 0.14140287 0.012114742
000060 1f a0 ee bd 5a 95 c8 3c 17 92 07 3e bf bc 96 3c
       -0.116516344 0.024485279 0.13239323 0.018400548
000070 35 c8 f7 3b f0 f4 e2 bd c2 58 29 3d b2 92 91 bc
       0.0075617083 -0.11081874 0.04134441 -0.017770145
000080 2e 56 5c bb ce ce 07 3d 07 16 81 bd a2 f0 a8 bd
       -0.0033620703 0.03315621 -0.063030295 -0.08249022
000090 c4 e6 b8 3c 8d 81 ca 3d 1e 86 41 be f4 27 c5 3d
       0.022570975 0.09887991 -0.18898818 0.09626761
0000a0 02 52 2d 3e da 44 0e be c6 32 7d 3d b1 56 a7 3d
       0.16925815 -0.13893452 0.061816 0.08170832
0000b0 e5 bb 6a bd 5c d3 01 be e6 59 64 bd 6b 24 e9 bd
       -0.057308096 -0.12678283 -0.055749796 -0.11383899
0000c0 db 17 16 bd d0 f8 cf ba 62 a3 bb bd 64 2a f8 3d
       -0.036643844 -0.0015866999 -0.09162022 0.1211746
0000d0 19 9b c9 3d 75 a7 a3 3d 96 b0 a8 bd 8b f2 01 be
       0.09844036 0.07990924 -0.08236806 -0.12690179
0000e0 26 e1 1f be 0a db 02 3d 7b 03 32 bd 19 82 0a be
       -0.15613231 0.031947173 -0.04346035 -0.13526191
0000f0 88 c4 4c 3c 7f b1 0e be e6 95 8d bd 25 17 3e 3c
       0.012498029 -0.13934897 -0.069133565 0.011602198
000100 9f 08 ee 3d 78 0e e2 3d ee c6 86 bd a1 e3 9d 3d
       0.11622738 0.11037916 -0.065809116 0.077094324
000110 c8 b1 21 3e 6d e3 97 3d fd 3b 2d 3d b3 c0 1d 3e
       0.15790474 0.07416425 0.042293537 0.1540554
000120 6d dd dc bc 26 b7 3c 3e bc ba 3e be 77 d5 00 be
       -0.026961053 0.1842924 -0.18625921 -0.1258143
000130 b6 a4 58 3e cc 07 65 3d 7c 47 e3 bd da d4 86 3e
       0.21156582 0.05591564 -0.11097619 0.26334268
000140 73 78 10 be 4d 30 4e bd 73 a0 1b 3d 3c 43 20 3d
       -0.14108448 -0.050339032 0.037994813 0.03912662
000150 dd 4f 4e bd 28 3d 71 3d 94 50 4b 3b de c4 a7 bc
       -0.050369132 0.058896214 0.003102337 -0.020479616
000160 38 28 6e bd b2 d5 d0 3d 42 99 da 3d 49 b8 60 bc
       -0.058143824 0.10197009 0.10673763 -0.013715812
000170 31 47 db 3d b4 60 5a bd 98 0e 68 3d 5e 65 60 3d
       0.10706938 -0.05331488 0.056654543 0.05478417
000180 3d 08 5b be 00 9f 85 3c 1e 54 4a 3c 39 43 40 3d
       -0.21389861 0.016311169 0.012349157 0.04693911
000190 1a b8 e6 3d 58 86 62 3a 43 17 65 be 94 93 19 3e
       0.11265583 0.00086412346 -0.22372155 0.14997703
0001a0 3b a0 4e 3d ef 89 56 be a2 d2 c2 3d 2e 6b 0b bc
       0.050445776 -0.20951055 0.09512831 -0.00850944
0001b0 a6 83 99 3b ce fe 58 bd 05 dc a1 bd bf 54 84 3d
       0.004684883 -0.052977376 -0.079032935 0.064614765
0001c0 91 12 22 bd 90 71 b4 3d c6 ac d9 bc b4 0f 4a 3d
       -0.039568488 0.08810723 -0.026571643 0.049331382
0001d0 ac c9 6e 3d 78 1f af 3d ff cd e7 bd 60 5f 12 bd
       0.058297798 0.08550924 -0.113185875 -0.035735488
0001e0 ed af 49 3e e7 cc 2b be 3e 72 c6 bc a7 c5 ea 3d
       0.19696017 -0.16777383 -0.024224397 0.114634804
0001f0 63 13 1e be 67 23 11 3e 49 e0 02 3e 3f d8 6f 3c
       -0.15437083 0.14173661 0.1278087 0.014638959
000200 4d ae d6 bd e1 8e 71 3e 72 80 7f bc 61 df 04 3e
       -0.10482464 0.2358966 -0.015594589 0.12975837
000210 91 6e 9f 3e 12 d6 31 be 4f 40 c0 3d 3e 53 9d 3c
       0.31139043 -0.17366818 0.09387266 0.019204732
000220 17 8d 8a 3d 03 1a e2 bd cd 12 ae 3d a9 2a 02 3e
       0.06765192 -0.110401176 0.0849968 0.12711586
000230 c4 a6 aa 3c b8 67 07 bd de eb f7 bd b9 d4 58 3c
       0.020831473 -0.0330579 -0.12105535 0.013234311
000240 ee 54 d2 bd ff 2c 1c bd 1f 5e 0f be 34 b4 ec bd
       -0.10270105 -0.03812885 -0.14000748 -0.115578085
000250 d1 67 2e 3e 80 ed 90 bd cc 58 e2 bd 4d d3 ee 3d
       0.1703179 -0.070765495 -0.11052093 0.11661396
000260 03 da 16 be 93 44 e3 3c 99 9b 8c 3b 03 92 90 bd
       -0.14731602 0.02774266 0.0042910096 -0.070590995
000270 58 dd 6d 3d 00 b3 a9 3b 5c 6a ed ba 0b 6f bc bc
       0.058072418 0.005178809 -0.0018113363 -0.023002168
000280 60 35 dc 3d b9 26 8c bc 45 6a 8c 3d d2 d3 c5 3d
       0.10752368 -0.017108308 0.06856207 0.09659542
000290 49 86 70 3e 3a 9f e0 bc 25 4f f8 3d 21 6f 46 3d
       0.23488726 -0.027419675 0.121244706 0.048445825
0002a0 af 76 65 be 4d 68 17 3e c1 2e 24 3e f4 c9 c1 bd
       -0.22408555 0.14785881 0.1603346 -0.094623476
0002b0 b2 02 24 3e ea ea a9 bd 82 c8 4a bd cc 11 f9 3d
       0.16016653 -0.082967594 -0.049507625 0.121615976
0002c0 cd 1a 4f bd 09 24 f9 bb 43 93 26 3e 6b 38 45 3c
       -0.05056267 -0.0076031727 0.16267113 0.012037377
0002d0 f5 ef 3b 3d a7 b9 c3 3d 8a ae a3 bd 50 61 14 3e
       0.045883138 0.09556895 -0.07992275 0.14490247
0002e0 ee 1c 02 3e af 69 34 bc 42 fd c5 3d de ba 8c 3d
       0.12706348 -0.011011525 0.09667446 0.068715796
0002f0 48 d3 40 bd 56 3b b5 3d b0 01 e5 3c 1e ad 27 bd
       -0.047076494 0.08849208 0.027954906 -0.04093658
000300 e9 43 1e 3e c9 23 fc bd b2 ac 06 3e 09 81 eb 3c
       0.15455593 -0.12311513 0.13151816 0.028748052
000310 e2 04 11 be 5a f1 b4 3d bb 2e 1e 3c 59 85 0e be
       -0.14162019 0.08835097 0.009654696 -0.13918056
000320 1c 67 5d be 96 c4 33 bc aa fc 4a be 31 55 ea 3c
       -0.21621364 -0.010972163 -0.19822946 0.028605076
000330 b9 c3 fd 3c 85 3e 8d bd 9c 8b 15 bd 3e c4 98 bd
       0.030977117 -0.0689669 -0.036510095 -0.07459305
000340 ff 5c 0e 3e 24 ab 87 3d 64 e2 b9 bd 0e 10 95 bd
       0.13902663 0.06624439 -0.09076384 -0.07278453
000350 33 4a 6e bc 74 9e 3b bd 34 a8 fd 3d 8a 00 a8 bd
       -0.014544058 -0.04580541 0.12385598 -0.08203228
000360 5b 00 02 3d 9c da 1b 3e 0a 53 0a 3e 72 9f be bc
       0.03173862 0.15220112 0.1350824 -0.023269389
000370 6f 97 43 3d e4 41 3c 3d c0 38 8e bd 73 b6 1c 3d
       0.04775184 0.045961276 -0.06944418 0.038259935
000380 3a 15 80 3c a6 be da bd 7b f1 51 3d 7c 5d aa 3d
       0.015635122 -0.106808946 0.051255684 0.08318612
000390 99 19 4e be 3a 8e 11 be 9a 36 b4 3d 45 2d 46 bd
       -0.20126952 -0.14214411 0.08799477 -0.048383016
0003a0 65 da 99 bd 7b 76 08 3e 8e bc 27 3e c6 df df bd
       -0.075123586 0.13326447 0.16380522 -0.10931353
0003b0 c4 39 0d be 00 ca 21 3e 25 83 c3 bc 12 d1 c1 bd
       -0.13791567 0.15799713 -0.023866246 -0.09463705
0003c0 1f 28 a7 3d b6 27 db 3c be 79 6d be c0 11 07 be
       0.08161949 0.026752334 -0.23190972 -0.13190365
0003d0 b8 eb b5 3c a5 16 d3 bd cc 13 3e be de cb 1a be
       0.022207126 -0.103070535 -0.1856224 -0.15116832
0003e0 32 5d de 3d 8f 0e dd bb 51 b4 1d be ec d3 86 3d
       0.10857619 -0.0067461203 -0.15400817 0.0658339
0003f0 38 e1 58 bd 6c 60 a6 bd 2f b0 ac 3d 78 64 ea 3d
       -0.05294916 -0.0812386 0.08432042 0.11444944

bias f4 [12]
000000 20 a1 14 be 8c 5e ff 3d 84 ca c8 bd 56 a7 02 3d
       -0.1451459 0.12469205 -0.09804252 0.031897865
000010 72 c7 2b 3d d1 db 0d 3d 03 17 b9 bc ea a0 bc 3d
       0.041938253 0.03463346 -0.02259398 0.092103794
000020 a6 dd d0 bd 53 44 57 3d 28 11 fd bd a8 0d 8c 3d
       -0.10198526 0.052555393 -0.12356788 0.06838542

weight f4 [16, 12, 3, 3]
000000 67 7f 96 3d 89 0e 1c 3e 98 15 10 bc 9a 14 ab bc
       0.07348519 0.1523992 -0.008794211 -0.020883847
000010 1e 6a 96 3c 9a ae 15 be 54 68 e5 3c 32 4a 76 3d
       0.018361147 -0.14617386 0.02800385 0.060129352
000020 8c bf 1c bd 0c 8d 12 bd ab 08 e1 3d 4d 31 c2 bc
       -0.03826861 -0.035779044 0.109879814 -0.02370515
000030 17 99 34 3d 62 ef d5 3d 4d f3 f8 bd 1c 4a f0 3d
       0.04409131 0.10446049 -0.12155781 0.11732885
000040 a0 25 c6 bc 41 aa 38 3d 75 4c 1b 3d 61 db d9 3c
       -0.024187863 0.04508424 0.037914712 0.026593866
000050 14 e4 24 3d f8 d7 9a bd 96 eb e7 3d 91 26 2b bd
       0.040256575 -0.07560724 0.11324231 -0.041784827
000060 eb a8 8f 3d 72 0a 6e bd b1 72 5d 3d 8e 9f 50 3e
       0.070146404 -0.05811543 0.054064456 0.20373365
000070 10 20 67 3c 21 4b 63 3d 87 d5 b8 3d 68 1a d3 bc
       0.014106765 0.05549157 0.09025102 -0.025769427
000080 0f 5c 91 bd 0a 92 cf bd 0e 78 b9 bb 3b 5d 42 3c
       -0.07097637 -0.101352766 -0.0056600636 0.011863048
000090 69 20 4f 3d ab dc c8 3c 71 9a 86 3d 9a fc ee bc
       0.050568018 0.024519285 0.06572426 -0.029173184
0000a0 c2 1d 29 be 4c ce c4 bd 04 00 ad bd ef f8 9e bd
       -0.16515258 -0.096096605 -0.084472686 -0.07762324
0000b0 06 5e af 3d a8 6c 80 bd 6e 19 51 3e 29 14 0e 3e
       0.085628554 -0.062707245 0.20419857 0.13874878
0000c0 a2 e2 8d 3d 7c bc 3d 3e 2f 32 70 3d 80 77 1c ba
       0.069279924 0.18528932 0.05864161 -0.00059687346
0000d0 1f c1 92 3d b3 46 6f bd 0c c8 8e 3d 50 18 de 3c
       0.07165741 -0.058417033 0.0697175 0.027111202
0000e0 8c 5c db 3c e1 00 57 3d 24 59 1b bd fe ee a7 3c
       0.026777528 0.052491073 -0.037926808 0.020499703
0000f0 bc 1f 20 bd 74 2b f0 3d 7c 13 56 3d 1b 08 4f bd
       -0.039092764 0.11727038 0.052264675 -0.05054484
000100 85 87 bd bc 0d 5b cb bd e4 54 31 3e 6f 9a 10 3e
       -0.02313591 -0.09929476 0.1731754 0.14121412
000110 0f 6c ad bb 76 4f 38 3d ad fb 92 3d f5 99 1c 3d
       -0.0052924226 0.044997655 0.071769096 0.038232762
000120 7f b2 cb bd a2 56 ad bd 38 2b 0a 3d 87 d5 cd bd
       -0.09946155 -0.084637895 0.033732623 -0.10050493
000130 e7 dd aa bd c4 e4 bc 3c 03 2f 9c 3c ac 27 b4 bd
       -0.08343106 0.023058303 0.019065386 -0.08796629
000140 60 26 01 3d ff e7 28 bc 3c a8 08 3e 96 dc cf 3d
       0.031530738 -0.010309218 0.13345426 0.10149495
000150 6b 96 09 3e 74 a1 f1 3d 1b d9 4e 3d 38 24 3d 3d
       0.13436286 0.11798373 0.050500017 0.04617712
000160 28 f2 96 bc c6 65 10 3c b2 88 2f bc 49 61 b9 3b
       -0.018426016 0.008813327 -0.010713743 0.0056573492
000170 75 e8 a1 bd f6 b2 27 bc fa dc 31 3d ca 35 04 bd
       -0.07905666 -0.010235539 0.04342363 -0.03227786
000180 e5 29 72 bc 69 e2 02 bb 72 e2 1f 3d ab 1c e7 3d
       -0.014780496 -0.0019971377 0.039034314 0.11284765
000190 22 a0 c0 bd 19 ec 5b bc fd 78 a8 3d 52 1f 8f 3d
       -0.09405543 -0.013422989 0.08226202 0.06988396
0001a0 64 bd d1 3c fe 44 00 3e 44 69 23 bd b5 3f a4 3d
       0.025603004 0.12526318 -0.03989531 0.08019964
0001b0 d6 1a e8 3b 6f 08 c2 bc 8e 6e a9 bd e3 fe 12 3e
       0.007083277 -0.023685662 -0.0827304 0.14355044
0001c0 17 7a d9 bd a9 2a 1f bd c7 4b c2 3d 4a 15 0a 3d
       -0.1061899 -0.038859043 0.0948711 0.03371171
0001d0 9a 4a 9f bd 17 f4 ae bd 7f a1 1f be 68 7a a7 3d
       -0.07777901 -0.0854265 -0.1558895 0.08177644
0001e0 7d 1f ea bd af 9d 83 be 39 bc 06 3e 14 03 3f bc
       -0.11431787 -0.2570624 0.13157739 -0.011658449
0001f0 87 c9 eb bb 65 38 02 3e 1e 94 6d 3c a5 e5 1e bd
       -0.007195655 0.12716825 0.014500646 -0.038793225
000200 4c af 23 3d 35 ea 36 bd a9 f1 cc bd 34 13 97 3d
       0.039962098 -0.04465695 -0.100070305 0.073767096
000210 b2 3a 8f 3d e9 f6 dd 3c 5d 7f bc 3c 87 87 31 bd
       0.06993617 0.027095275 0.02300995 -0.04334214
000220 90 3c ee bc a4 8f 44 3c d6 12 65 bd a3 49 25 bd
       -0.029081613 0.011997137 -0.055926166 -0.04035343
000230 75 59 09 3d 02 61 1e bd 74 72 a7 bd d6 88 4a bd
       0.03353258 -0.038666733 -0.08176127 -0.049446903
000240 5b 83 b7 bd e8 0d 2a bd d8 b9 5f bd c5 fe 44 3d
       -0.08960601 -0.04151717 -0.054620594 0.04809453
000250 1d 0e 2d 3d 4c 86 70 bd 16 4a b6 bd 0a 0d 52 bd
       0.042249788 -0.058721825 -0.089008495 -0.051281966
000260 bb fd ac bc 5e 95 7d bd 49 0a ad bd 4c 1a 04 3e
       -0.021117082 -0.061910026 -0.08449227 0.12900656
000270 0e 13 a4 bc aa 33 fa bd ba a5 d2 3d 50 9c 03 bd
       -0.020028617 -0.122168854 0.10285516 -0.032131493
000280 78 dc ae bd 36 ea fc 3d 45 00 bc 3d 46 da c3 3d
       -0.08538145 0.1234936 0.09179739 0.09563117
000290 4f 47 31 3d 6e ac 85 3d 6c 78 7a 3c 3b 5e 81 bd
       0.043280896 0.06527029 0.0152875 -0.06316801
0002a0 60 17 13 3e 33 1d 90 bc 0d 77 1f bd 5c fd 90 bd
       0.14364386 -0.017592048 -0.038931895 -0.070795745
0002b0 ef 25 22 bc bd f6 c4 3d e8 b2 9f 3c 2b 75 e4 3d
       -0.009896739 0.09617374 0.019494489 0.111551605
0002c0 2f a2 89 3c 0b 80 c7 3c bc b3 86 3d 01 6b b6 bd
       0.016800968 0.024353048 0.0657725 -0.08907128
0002d0 72 ba 8c 3d 94 2d 8b bd 10 88 aa bd cf 7d 3e 3e
       0.06871499 -0.06795803 -0.08326733 0.1860268
0002e0 68 ec ab bd a6 7b bd bd 77 dd d7 3d 6d 0f e0 bd
       -0.083947 -0.092521 0.10540288 -0.10940442
0002f0 20 eb 09 be 3a 4e d3 3d f6 ac 39 bd c2 d3 0b 3c
       -0.134686 0.10317655 -0.045330964 0.008534374
000300 f6 9b 0b 3e fe c5 07 3e 32 1e d4 3d e0 c5 da 3d
       0.13633713 0.13259122 0.10357322 0.10682273
000310 0d 6d 9a 3c a2 17 96 3d 28 9c b9 3c f9 6d c4 bd
       0.018850828 0.07328726 0.022657469 -0.09591288
000320 c6 61 93 3d 90 2a 16 3d 3b aa ba bd 2c c3 15 3d
       0.07196383 0.036661685 -0.091145 0.036563084
000330 5b cd 33 3d 8a 46 d6 bd f3 bb db 3d 87 7d ad 3d
       0.043897014 -0.10462673 0.10729208 0.08471208
000340 52 9f 0e be 7e 41 ff 3c cd 3a 15 3e 10 79 98 bd
       -0.13927963 0.031159159 0.14573212 -0.07444966
000350 09 71 7d 3c 1e 60 26 bd b7 48 7a 3d f5 92 36 bc
       0.015468844 -0.04061901 0.061104503 -0.011143436
000360 b2 8c 19 3e 8a 5f a8 3d ca ac b4 bc 50 e6 3c 3e
       0.14995077 0.08221348 -0.022055048 0.18447232
000370 99 cc f1 3d 09 ab 69 3b e6 c4 03 3e 90 53 2c b9
       0.11806602 0.0035654923 0.1286808 -0.00016434328
000380 aa 24 31 bc 0f 4e 43 3c 96 b2 4f 3d 82 21 1e be
       -0.010811964 0.011920466 0.050707422 -0.1544247
000390 26 85 fd 3c 35 9e f2 bd 12 f1 83 bd 5f 42 d9 3d
       0.03094728 -0.11846582 -0.06442465 0.106083624
0003a0 15 23 fd 3c ff f6 1e bd ac f0 4d bd e8 70 97 3d
       0.030900517 -0.038809773 -0.05027835 0.07394582
0003b0 c2 32 8b bd cc 07 ef 3d 1e 46 20 bb 6c db 03 be
       -0.06796791 0.11671409 -0.0024455856 -0.12876672
0003c0 78 95 cb 3d b6 87 05 3d c3 67 1b be 65 30 cf bd
       0.09940618 0.032600127 -0.151763 -0.101166524
0003d0 8f 2c c3 bc 35 9c 66 bd 70 6a c8 bd f1 84 85 bd
       -0.023824958 -0.056301314 -0.09785926 -0.06519497
0003e0 33 86 d7 3c d3 d3 bc 3d f7 1a d4 bc fb 73 8f 3d
       0.026309108 0.0922009 -0.025891764 0.070045434
0003f0 52 51 04 3e 34 9d 2a bd 0f 99 ca 3d 82 c9 b3 3c
       0.12921646 -0.041653827 0.09892475 0.021946672

bias f4 [16]
000000 22 09 98 3d a2 0e 93 3c 73 8d 76 bd 28 6b 85 3d
       0.07423617 0.017951313 -0.06019349 0.06514579
000010 02 de b5 bd 2e 60 5f bd 09 88 b4 3c 61 a3 b3 3c
       -0.08880235 -0.054535083 0.022037523 0.021928491
000020 34 f3 e5 3c 08 82 02 3d 81 3c 34 3d 01 32 3c bd
       0.02807007 0.03186229 0.044003014 -0.045946125
000030 f0 8c f1 ba 57 ca 94 3b 9d 41 0f 3d a3 0d 90 3d
       -0.0018428843 0.0045407224 0.034974683 0.07033851

weight f4 [20, 16, 3, 3]
000000 cd 32 a7 3d 98 3d ac 3d 24 5c 68 3d 4f 61 e0 3d
       0.08163986 0.084101856 0.056728497 0.1095606
000010 4b aa f6 3d 95 4b 39 3d f2 69 c8 3b bd f7 17 3d
       0.120441996 0.045238096 0.0061161453 0.037101496
000020 3f d8 c1 bc 39 18 92 bd 49 c8 f6 bc 59 a2 62 3c
       -0.023662684 -0.07133526 -0.0301248 0.013832652
000030 f9 89 1d be 07 11 d6 bd cb d5 b5 3d 2e 9c a6 bd
       -0.15384664 -0.104524665 0.088786684 -0.08135258
000040 d3 45 c5 bd e0 31 0b 3d 23 24 c4 bd 97 02 42 3d
       -0.096324585 0.03398311 -0.09577205 0.04736575
000050 6f 2a 10 bd 13 0b b9 bd 1f cd d5 bc 3d ec 89 3c
       -0.035196718 -0.09035315 -0.026098786 0.01683628
000060 80 ef 6f bd 3c 1c 15 3d fc 94 b3 bc 0b a6 26 bc
       -0.058578014 0.03640388 -0.021921627 -0.010171424
000070 e6 50 27 3c ba 20 60 bd 54 f2 90 3d ed 33 55 ba
       0.010212159 -0.05471871 0.070774704 -0.0008133043
000080 92 c3 ee bd e7 7e 9b bc fd f8 88 3c c7 8c c8 bd
       -0.11658396 -0.01898141 0.01672029 -0.09792476
000090 a7 e5 88 bd e7 7a db bd 0e 06 90 bd e8 54 48 3d
       -0.06684428 -0.10716801 -0.07032405 0.048909098
0000a0 f7 3b 25 be e6 d1 82 bd 43 9b 93 3d 99 c0 dc 3c
       -0.16136156 -0.06387691 0.07207348 0.026947306
0000b0 d2 85 0c bd f9 a4 e8 bd eb 9d 0c bd e3 4e 1b bd
       -0.03430731 -0.11359591 -0.03433029 -0.03791703
0000c0 24 62 88 bd 14 a8 2a 3e 5a 5a 44 bd 5a bb 05 3d
       -0.06659344 0.16665679 -0.04793773 0.032649375
0000d0 6f a3 1d 3e 44 2d 37 be 00 a6 ff 3c 3f 1c 39 bc
       0.15394376 -0.17888361 0.031207085 -0.011298238
0000e0 7e a5 1d bd d5 07 45 3d f6 3a 80 3c f0 e9 33 ba
       -0.038487904 0.048103172 0.015653115 -0.00068631675
0000f0 aa f1 6b 3b c5 b7 5a bd 5e e1 7f 3d 76 2b 24 3a
       0.0036002197 -0.053397913 0.062470786 0.00062625797
000100 12 8d 10 bb e3 c6 66 bd 83 01 99 3c 56 c5 d6 bc
       -0.002205674 -0.056342017 0.018677479 -0.026217144
000110 85 7e 01 be e4 0c ab bd f4 90 90 3c 09 ca f9 bc
       -0.1264592 -0.08352068 0.017647244 -0.030491846
000120 e3 f4 9e bd 88 b6 ff 3c 3d 99 90 bd 23 d8 56 3d
       -0.07761552 0.031214967 -0.07060478 0.052452218
000130 ed ea df 3d 62 42 a6 bd e3 0e c2 bd 29 83 fa bc
       0.109334804 -0.0811813 -0.09475496 -0.03058012
000140 4d 0f 5c 3d 06 f4 bd bd 7e 29 20 3d 33 16 a3 3d
       0.05372553 -0.092750594 0.03910207 0.079632185
000150 6c c3 b9 bd 8f 8b 79 3d 5b 93 10 bd fc f4 2c bc
       -0.09070477 0.06092411 -0.03529678 -0.010556456
000160 db 5d 35 bd 43 dc d0 bc bd f4 c7 bd 27 0c 25 bd
       -0.04427896 -0.025495654 -0.09763477 -0.040294793
000170 4a 81 f6 3c f0 18 e9 bb ba 55 c4 3d e5 d2 aa bc
       0.030090947 -0.0071135685 0.095866635 -0.020852515
000180 a8 8d cc 3d 8e 47 ff bb c8 bf 78 3c f5 2b 7b 3d
       0.09987956 -0.0077905124 0.015182443 0.061321218
000190 c1 e0 b4 3d 72 d8 33 bd 5d e3 8b 3d 1b 47 cc bc
       0.08831931 -0.04390759 0.068304755 -0.02493625
0001a0 64 5c 33 bd 2e 3a cb bc 62 c3 b8 bd 0b 35 f6 3b
       -0.043789282 -0.024808016 -0.09021641 0.0075136474
0001b0 1d 76 6d 3d d6 81 1d 3e 58 68 86 3c fc bb 15 bd
       0.05797397 0.1538156 0.016407177 -0.03655623
0001c0 23 46 63 bd 1e 00 28 bd 4a 6c b2 3c e2 65 af bd
       -0.05548681 -0.041015737 0.021780152 -0.085643545
0001d0 e5 c9 90 bc c1 bb 81 3d 41 34 42 3d a9 ea d2 3a
       -0.017674396 0.06334639 0.047413114 0.0016091663
0001e0 50 cf ff 3b 9a 16 48 bd 8f d0 22 bd a8 83 19 3d
       0.007806696 -0.04884968 -0.03974968 0.037479073
0001f0 a7 0e c6 bc 90 7b f2 bb 72 29 75 bb 34 b8 82 3c
       -0.024176909 -0.0073999837 -0.0037408737 0.015956976
000200 51 0c 67 bd 69 dd 9f bb 66 ba ad 3d 0e ae 1e 3d
       -0.05640823 -0.004878689 0.08482818 0.03874021
000210 73 76 90 bc 87 8c 8b 3d b4 b1 8e 3d dd b4 9e 3d
       -0.017634606 0.06813913 0.06967488 0.07749341
000220 d4 f3 72 3d 30 0c d0 bd 72 67 30 bd 73 af bd 3d
       0.059314564 -0.101585746 -0.043067403 0.0926198
000230 a0 c4 bc bd 61 8d c4 bd 3e 2e 5a 3d 6c a4 93 bd
       -0.09217191 -0.095972784 0.053266756 -0.07209095
000240 b4 59 d8 3d 0b 17 44 bd f2 f2 26 3d bd 13 4b bd
       0.105639845 -0.047873538 0.040759034 -0.04957937
000250 94 90 e7 bc 59 c5 d8 bb 20 15 d9 3d dd 95 34 bc
       -0.028267182 -0.0066153225 0.105997324 -0.011022058
000260 6d 0c 7b bc a4 7d bf bd d3 75 c1 3d c7 61 03 3d
       -0.015322787 -0.09350136 0.09446301 0.03207567
000270 e3 bf fa bd 0f a7 fb 3d d0 a4 dd bd 07 41 22 be
       -0.12243631 0.12287723 -0.10822451 -0.15845118
000280 bd c5 33 3e a5 37 98 bd 58 8f cc bc 78 fd 03 3d
       0.175559 -0.07432488 -0.024970695 0.03222415
000290 d2 4a 1c 3d 7e 84 5f 3d 60 18 47 bc 2c 1d b1 bd
       0.03815729 0.054569714 -0.012151808 -0.08648142
0002a0 dc 7b 1c 3e d6 62 ac 3d ba 33 d7 3c b2 02 c5 3d
       0.15281624 0.08417289 0.026269782 0.09619655
0002b0 e0 d8 77 bd 5b 08 b4 bd ba ec b9 3d fe cb 81 3c
       -0.060509562 -0.08790656 0.09078355 0.015844341
0002c0 da be 89 bd 05 da 2f 3e e9 b1 9b 3d 98 30 04 3d
       -0.06725855 0.17173012 0.07602293 0.032272905
0002d0 c4 02 bd bb 5d 40 db bc 73 fd 9b bc 2a 3b e8 3d
       -0.005768152 -0.02676409 -0.019041752 0.1133941
0002e0 91 d5 14 3c 28 cf 6c bd 2c 53 07 3e 98 e0 a8 bd
       0.009084121 -0.057814747 0.13215321 -0.08245963
0002f0 0b a6 a6 3d 3e 58 7e 3d 1f 81 74 3c 81 fc 96 bd
       0.08137139 0.062095873 0.014923363 -0.0737238
000300 d9 95 58 3c c5 ce f8 bd 14 30 f3 bd 80 54 27 3e
       0.01321932 -0.12148813 -0.118744045 0.16340828
000310 90 ca c9 bd 5e 33 39 bd 0c 2c 74 3d c8 05 2c bd
       -0.09853089 -0.045215003 0.05961232 -0.0419977
000320 cc 30 2d bc 0b c6 dc 3c b0 aa af bd 02 64 cb bc
       -0.010570716 0.026949903 -0.08577478 -0.02482796
000330 87 43 5f 3d 64 fb 1f bd 82 19 05 bd 9b 0d 7f 3c
       0.05450776 -0.039058104 -0.03249503 0.015567209
000340 c6 5d a0 3c 11 d9 04 bd 72 0d ca 3d 73 2d ef bc
       0.019575965 -0.032433573 0.09865846 -0.029196477
000350 36 b4 8e 3c 6c 4b bd 39 fb 72 c7 bd e8 1b 60 3d
       0.017419916 0.00036105083 -0.09738728 0.054714113
000360 1d 32 6b 3d de f5 83 bd 82 bf 5f bd 9c a4 fb 3d
       0.05742084 -0.0644338 -0.054625995 0.12287256
000370 89 41 0f bd af 68 8b bd de 2b e4 3d aa 8c 13 3d
       -0.03497461 -0.06807076 0.111411795 0.03602282
000380 64 e0 7d bd 6e 20 90 bd 62 e3 f9 3c 6c 88 32 3d
       -0.061981574 -0.070374355 0.030503932 0.043587133
000390 92 d3 31 bd 7c 7d 15 3d 9b ab 35 bc 5b 90 87 3b
       -0.04341466 0.036496624 -0.011088277 0.0041370816
0003a0 e9 da 44 3d 65 09 62 bb 69 22 b0 3d da dc 31 3e
       0.04806033 -0.0034490463 0.08600313 0.17369404
0003b0 f9 28 68 3d 66 c0 c6 bd d1 b3 30 3d 6b f6 9b bd
       0.0566797 -0.09704666 0.043140236 -0.0761536
0003c0 6c 34 b1 bd 9e 7c 56 3a f6 25 c3 3c 5d b0 91 3d
       -0.08652577 0.00081820216 0.023821812 0.07113717
0003d0 6d e4 d6 bc 47 84 d2 bc 44 b1 92 bd cd c2 a0 bd
       -0.026231969 -0.02569784 -0.07162717 -0.07849655
0003e0 10 32 92 bc ff d2 d2 bd 11 09 bd bd fa 75 d6 bb
       -0.017846137 -0.102941506 -0.09230245 -0.0065448256
0003f0 35 fc d3 bb 14 e8 23 bc 81 bb c7 bd 3d 01 98 bd
       -0.0064692744 -0.010004062 -0.097525604 -0.07422111

bias f4 [20]
000000 49 ca 69 3d 43 32 0d 3d 0c 36 8a 3d 34 22 45 3e
       0.05707768 0.03447176 0.0674859 0.19251329
000010 eb 3a 0e be 1f 53 24 be 8a d2 36 bd ca ed 6c bc
       -0.13889663 -0.16047333 -0.04463438 -0.01446099
000020 ff a5 26 3e 52 f9 ae bd 67 7c c4 3d ec bc c2 3d
       0.1627426 -0.08543648 0.0959404 0.0950869
000030 b5 c2 eb b9 77 26 7e 3d f7 e2 d1 3c 0a bf a8 3d
       -0.0004496776 0.0620484 0.02562092 0.08239563
000040 98 30 ee bd 47 22 d5 bd ee 27 3a 3d 78 c6 d2 bc
       -0.11630362 -0.104069285 0.045448236 -0.025729403

weight f4 [24, 20, 3, 3]
000000 bb d7 4e bd 03 f9 35 3d d2 29 89 ba a7 7e 0a bc
       -0.050498705 0.04442693 -0.0010464734 -0.008453048
000010 24 e8 96 3d b1 b9 f1 3a 30 c4 cf 3d 06 9f fa 3d
       0.07368496 0.0018442181 0.10144842 0.122373626
000020 b3 fd de bc 4f 1c 64 3d e5 54 dc bc b8 8b 0a 3e
       -0.027220583 0.05569106 -0.02689595 0.13529861
000030 b3 e7 83 3d 32 18 cc bb 52 14 43 3e d2 34 ae 3d
       0.064406775 -0.0062284702 0.1905072 0.085061684
000040 3d 79 a6 3d 21 e4 83 3d ad 35 2b bd 8e ea 60 bc
       0.08128593 0.064399965 -0.041799236 -0.013727797
000050 9f 5c ea bc 96 db 09 3e de c9 d2 3d df 06 de 3c
       -0.028608618 0.13462672 0.10292409 0.027102886
000060 48 7d 83 3e f6 af d2 3d fb fe 4f 3d 7c e4 ff bb
       0.2568152 0.10287468 0.050780278 -0.00780922
000070 5b a6 44 bc a8 d5 04 3d 15 8a 83 3b bf b1 73 3d
       -0.012002553 0.03243032 0.0040142634 0.059495684
000080 2a 44 92 3d b6 c1 b8 3d 8a 40 09 3e 8b 28 2c 3d
       0.071419075 0.090213224 0.13403526 0.042030852
000090 1a af 17 3d 90 97 bb 3d 88 31 d1 3c 50 70 28 bd
       0.037032224 0.09159768 0.025536314 -0.041122735
0000a0 51 5b f2 3d 3e 91 da bc d6 06 dd bb a6 bf c8 bb
       0.118338235 -0.026680585 -0.0067451997 -0.006126362
0000b0 b8 db bf 3c e5 09 74 3d 97 ef 7b 3b d8 4a b8 3c
       0.0234202 0.05957975 0.0038442367 0.022496626
0000c0 ea f6 b1 3d 80 af 72 3d 11 34 f3 bd a4 8d 21 bc
       0.08689673 0.0592494 -0.11875165 -0.00986043
0000d0 98 a4 63 bb 28 cd 09 be b6 68 c3 bb d0 a1 42 3d
       -0.0034735557 -0.13457167 -0.0059634103 0.047517598
0000e0 c9 25 57 3d 9b e9 e6 3d 9d 1f 99 3d 11 68 79 3d
       0.05252627 0.112750255 0.07476733 0.06089026
0000f0 9d e6 5d 3e dc 00 f8 3d c4 28 c2 3d 80 dc 98 3d
       0.21670003 0.12109539 0.09480432 0.07463932
000100 f3 8d 86 bb d1 95 e5 bd a0 21 6f 3c 14 9c 0c be
       -0.004106277 -0.11210216 0.014595419 -0.13731414
000110 0f 9f 09 be b8 aa d9 bd 37 48 29 be 1f 68 60 bd
       -0.13439582 -0.10628265 -0.16531454 -0.054786798
000120 84 36 5c 3d e9 cc 90 bc a0 74 0d bd 1c 4d 93 3d
       0.053762928 -0.017675834 -0.03453505 0.07192442
000130 50 e0 4c 3d 1a de d0 3d 8b a0 44 3e fe 15 c9 bc
       0.05001861 0.101986125 0.19201867 -0.02454662
000140 7a 94 04 3d 88 88 92 3d cc 04 21 bd a1 e4 41 bc
       0.03236816 0.071549475 -0.039311215 -0.011834295
000150 10 cb 23 3d 29 a9 bb bd 7e ee d4 bc e8 00 4a bd
       0.039988577 -0.09163124 -0.025992628 -0.04931727
000160 a6 37 d1 bd 1f c3 48 bd 01 9a 0d be ac d3 b2 3d
       -0.10215692 -0.049014207 -0.13828279 0.087317795
000170 95 1f f6 3d 7a 37 fd bd 59 77 1e 3d 44 08 8d bd
       0.120177425 -0.12364097 0.038688038 -0.06886342
000180 88 e2 66 bb 13 04 db bd 91 aa aa bd 6b 09 4d 3d
       -0.0035230238 -0.106941365 -0.08333314 0.05005781
000190 f0 50 44 3d 12 5b b4 bd 5c fe a2 bd 01 02 59 be
       0.04792875 -0.08806433 -0.079586715 -0.2119217
0001a0 3c 49 66 be 3c 89 2d be 9c be 64 be 23 1d b1 bc
       -0.22488874 -0.16946882 -0.22338337 -0.021620339
0001b0 d2 ac 2b bd 9d 67 9c bc 83 f0 97 bd 32 ba 3c bd
       -0.04191286 -0.019092375 -0.07418921 -0.046076007
0001c0 2c 64 98 bd 77 7a 12 be db d9 ac bd c9 62 b1 bd
       -0.07440981 -0.14304529 -0.0843999 -0.0866142
0001d0 cd 38 59 bd 7a 65 03 3d c7 28 82 3d ab e5 26 bd
       -0.053032685 0.032079197 0.06355434 -0.040746372
0001e0 48 bc 3e ba 14 44 0c bd cd c4 85 bd a8 aa ce bd
       -0.0007275981 -0.03424461 -0.065316774 -0.10091144
0001f0 06 79 ac bd 50 8b 6d bd 68 41 71 3d 07 fe c3 bd
       -0.08421521 -0.057994187 0.058900267 -0.09569936
000200 5c 16 2e bd 00 93 5f 3d 2c c4 3b bd 9a 2e bb 3b
       -0.042501792 0.05458355 -0.04584138 0.0057123424
000210 a3 b1 22 bd 44 4f 2f 3d 1d 92 89 3c 0c 06 45 bc
       -0.03972019 0.042800203 0.016793305 -0.0120253675
000220 67 1d 30 be 3c 92 b5 bd 4a a5 73 bd 21 dc 15 be
       -0.17198716 -0.088657826 -0.059483804 -0.14634754
000230 fb a2 07 bd c6 f5 cd bd 1a 65 ef bd 6e 05 88 3d
       -0.033114415 -0.10056643 -0.116892055 0.06641661
000240 8f 18 e0 bb 12 8b 2b bd 45 06 90 3d 0c eb ce 3d
       -0.006838865 -0.041880675 0.07032446 0.101034254
000250 82 fc 6f 3d 47 29 e3 ba 4f 8a 9f 3d ae 43 33 3d
       0.05859042 -0.0017331027 0.07790052 0.043765716
000260 4b 70 86 3c 64 aa bc 3c 18 61 b3 3c 29 0c 23 3d
       0.016410967 0.023030467 0.021896884 0.03980652
000270 51 73 d5 3d 40 eb 22 bd 8f 81 78 bc 34 6f 93 3c
       0.104223855 -0.039775133 -0.015167608 0.017997362
000280 8a c7 e1 3c 7d 66 9c 3c 94 09 06 bd 6e 12 7b bd
       0.027560968 0.019091839 -0.03272398 -0.061296873
000290 26 71 88 bb f4 11 2d 3d ee 7b 84 bd e2 78 90 3d
       -0.004163879 0.04225345 -0.0646895 0.070543066
0002a0 60 59 f6 3c 77 36 51 bd 93 c3 bd ba df 1c 4e bd
       0.030071914 -0.051077332 -0.0014477841 -0.050320502
0002b0 8d 4c a0 bc 20 6a 57 bd 25 6e 80 bc ca 10 7b bd
       -0.019567752 -0.052591443 -0.015677521 -0.06129531
0002c0 c8 f7 23 bd 63 89 39 be e7 d0 15 bd 2e 32 c0 bd
       -0.040031224 -0.18118815 -0.036576178 -0.09384571
0002d0 c8 dd b1 bc 40 d8 fa 3c 71 4b 03 be aa bf d4 bb
       -0.021712199 0.030620694 -0.12821747 -0.0064925747
0002e0 c4 21 00 3e a2 ee 88 bd a7 66 0c bd a6 64 0b bd
       0.1251288 -0.066861406 -0.034277584 -0.034031533
0002f0 45 e9 a6 bd db 76 30 3d fd 4b 00 3d da 43 08 3c
       -0.081499614 0.0430821 0.031322468 0.008316958
000300 d8 99 da 3d da cd 52 bd 34 4e 93 3d f6 cc 28 3d
       0.106738746 -0.051465847 0.071926504 0.04121109
000310 28 fa db 3d 40 d9 d0 3d 3a 91 af bd 34 55 29 bc
       0.10741073 0.10197687 -0.08572622 -0.010335255
000320 96 96 1b bd 65 ee a6 bd c0 c6 a3 3d e8 4c 2a 3d
       -0.037985407 -0.08150939 0.07996893 0.04157725
000330 6a a7 56 bd 16 a4 c7 3c 61 08 09 3d 37 50 17 be
       -0.052405752 0.024370234 0.033455256 -0.14776693
000340 03 19 e0 3c 2a ce 97 3d ca fe 1a 3d fd 4c 9c 3d
       0.027355677 0.074123695 0.037840642 0.07631872
000350 da e9 b8 3d b5 e3 3e 3d aa 76 5c 3d 1c 1a 03 bc
       0.09028979 0.046603877 0.053824104 -0.00800183
000360 8b ef f4 bc 2a 7b a9 3d bd 17 6f bd 48 28 8d bd
       -0.02989938 0.08275445 -0.058372248 -0.06892449
000370 4e 9b 4b 3d 51 7e c4 bd 24 48 8a bd 52 63 1e 3d
       0.049708657 -0.095944054 -0.06752041 0.038668938
000380 13 2e 17 be ed 0e 88 3b 33 de c8 3d fd fc e1 bd
       -0.1476367 0.00415217 0.09808006 -0.11034582
000390 52 6c de bb 0f 11 2e 3d d2 48 c3 bd 9b e4 cc 3c
       -0.006787815 0.042496737 -0.09535374 0.025011351
0003a0 f9 90 aa 3c 1e 30 b9 bd 53 22 75 bd a5 94 67 bd
       0.020821081 -0.09042381 -0.059847187 -0.056538243
0003b0 1f 3a 11 bc ee 77 93 3c 1d 4c a3 bd 30 a2 98 3d
       -0.008863955 0.018001523 -0.07973502 0.0745281
0003c0 d5 cd 71 3d c8 e5 46 3d 54 9f 57 3c eb 0d 75 bc
       0.059034187 0.04855898 0.013160545 -0.014956932
0003d0 c3 7a 15 bd c0 04 9e 3d 11 18 63 bc e2 c5 63 3b
       -0.036494028 0.0771575 -0.013860718 0.0034755399
0003e0 fe c5 6e 3d af f7 e5 bd e9 f8 b4 bd f8 35 ae bc
       0.05829429 -0.112288825 -0.08836538 -0.021265969
0003f0 fb ff 50 3b a7 0a fb bd b9 2e 26 3d 38 1d a1 3d
       0.0031890857 -0.12257891 0.040571902 0.07866901

bias f4 [24]
000000 ac 4f 80 bd 06 42 fd 3c 60 e5 78 3d 95 cb c2 3d
       -0.06265196 0.030915271 0.060765624 0.095114864
000010 2c 97 6f bd 8e fd 3d 3d ab e0 0f bd 46 d5 35 bd
       -0.058493778 0.046384387 -0.03512637 -0.044392847
000020 29 22 c5 bd 6a 2c 30 bd 4a b5 86 3c 8f 7f 71 bd
       -0.09625656 -0.043011107 0.016443867 -0.05895954
000030 bf d0 73 3d 89 d5 ac bd 1d 11 66 3c 70 af cb bc
       0.059525248 -0.08439166 0.014042166 -0.024863929
000040 e9 d1 80 bd bb 3f a8 3c ee 4a 82 bd e9 7b f3 3c
       -0.06290037 0.020538202 -0.06361948 0.02972217
000050 18 e0 a7 3d df cf c3 bc 49 a3 8a 3d c1 ce a8 bc
       0.08197039 -0.023902832 0.067694254 -0.0206064

weight f4 [72, 144]
000000 59 6a 8a 3d ac 7a 36 3d 32 9a f6 bd 65 72 20 3c
       0.067585655 0.044550583 -0.12041129 0.009792899
000010 c0 12 31 bd c5 1d c0 3b 42 82 26 be ef 24 45 3d
       -0.043230772 0.005862924 -0.16260627 0.048130926
000020 16 d0 0d be ea 77 5b 3d 47 a3 47 3d df 90 86 bc
       -0.1384891 0.053581156 0.048739698 -0.016426502
000030 ce b6 e1 bd 44 67 6a bc d2 9c 21 bd 82 d5 89 3d
       -0.11021195 -0.014306847 -0.039456196 0.067301765
000040 9c 3b 83 3d d0 bd 94 bd 7b db 3a bd 5b 30 a0 3c
       0.06407854 -0.07262766 -0.04561947 0.019554308
000050 96 b5 51 bd af aa b7 bc 72 ac 43 bb 8f f1 37 3d
       -0.051198564 -0.022420255 -0.0029857424 0.044908103
000060 76 25 7f bd 35 c5 a1 bc 36 3f 97 bc dd ff 68 bd
       -0.062291585 -0.019747356 -0.018462759 -0.056884635
000070 f1 4e cb 3c f3 42 0a 3d f8 f1 ea bb fd 24 41 bd
       0.024817916 0.033755254 -0.007169958 -0.047154415
000080 fd 57 c6 3d 23 8d 65 bd 1d 2c 47 bc ee 4a 97 bc
       0.09684751 -0.0560428 -0.0121565135 -0.018468346
000090 f7 e0 8d bd 63 4c 55 3d 7a 30 b6 bc 0e 04 40 3d
       -0.06927674 0.0520748 -0.022239912 0.046878867
0000a0 60 a5 0d bc 34 e9 c1 3c 6f 6d c4 bd 42 37 33 3d
       -0.0086453855 0.02367077 -0.09591185 0.04375387
0000b0 8b ce d3 3d 90 1c 9f bd aa e1 5a 3d bd 0a e3 bd
       0.10342129 -0.0776912 0.053437866 -0.110860325
0000c0 9c 34 95 3d f9 f8 82 bc 32 1f 25 bd ce 0d 88 bd
       0.07285425 -0.01598786 -0.040312953 -0.06643258
0000d0 fe 33 ad 3d d7 30 53 3d 87 53 ea 3d 4f e0 2a 3d
       0.08457182 0.05156025 0.11441713 0.041717824
0000e0 8e 02 b1 3c 7b f6 7f 3d dc 6e c5 3d c4 10 eb 3d
       0.021607663 0.06249092 0.096402854 0.11477807
0000f0 da 11 02 be 6f 4e f8 bc 71 b1 63 3a d3 ed d2 3c
       -0.12702122 -0.030310838 0.00086858036 0.025748169
000100 e1 ab da 3d 10 a5 f0 3c 28 40 33 bd 9b b6 85 bd
       0.106773145 0.029375583 -0.043762356 -0.0652897
000110 05 fb e7 38 70 bf 5e bb b4 b8 02 3c fc f8 fe bb
       0.000110616944 -0.0033988617 0.007978607 -0.007781146
000120 c7 44 a7 bc 27 40 26 bd 57 bb cf bd fe 78 c4 3d
       -0.020418538 -0.040588524 -0.10143154 0.0959339
000130 4a 62 d9 3c 01 c5 40 3d fd 19 5b 3c 5b 39 23 bd
       0.026536126 0.047062878 0.013372895 -0.03984962
000140 a1 fa 51 3d 00 b6 94 3d 7b 33 ce 3d c1 6a da ba
       0.05126441 0.07261276 0.10068413 -0.0016663895
000150 53 12 91 3d 6a 12 0f 3d 63 23 ef 3d 5b f5 b7 bd
       0.07083573 0.03492967 0.11676671 -0.08982345
000160 0c f8 1a 3d 6c 79 c5 3d 5a 6d 40 3d e0 3a 83 bd
       0.037834212 0.096423 0.046979286 -0.06407714
000170 15 17 0d be a8 41 b8 3d ee a1 a2 3c b0 69 08 3e
       -0.13778336 0.08996898 0.019852605 0.13321567
000180 40 2f 78 3b 2e 9b 8f bc 98 98 72 bd e6 a7 60 3d
       0.003786996 -0.01753005 -0.059227556 0.05484762
000190 45 c0 df bb 42 26 af 3c 50 0f 9d bd eb 19 a5 bb
       -0.0068283402 0.021380547 -0.07668936 -0.00503849
0001a0 90 e5 12 3e d5 1e ee 3c cc ee 6d 3d f2 bf 2a bd
       0.14345384 0.029067436 0.058089063 -0.04168696
0001b0 47 f1 9b 3d 05 fe 4b 3d 3c 21 60 bd ee 9b 25 3d
       0.076143794 0.0498028 -0.054719195 0.04043191
0001c0 a5 6e 33 3d 8f 3d 7b bd de d6 82 3a 60 2f 24 bd
       0.04380669 -0.061338004 0.0009982248 -0.040084243
0001d0 d2 b9 22 bd 62 c8 cd bd 5b bf ef 3c 59 88 8e bd
       -0.039727993 -0.100479856 0.02926605 -0.069596
0001e0 b7 67 3c 3d 44 3f a4 3c 60 7f 94 bd ca 30 14 3c
       0.045997348 0.020049699 -0.07250857 0.009044835
0001f0 c9 f1 4f 3d f3 d3 9b bd 82 a8 8d 3d bd b2 51 bd
       0.050767694 -0.076087855 0.06916906 -0.05119585
000200 bb c2 61 bd aa e9 cc 38 c9 92 50 3d 2c 2d 7b 3d
       -0.05511735 9.771001e-05 0.050921235 0.061322376
000210 11 d9 6a 3b 06 7b 33 3e b4 4b 60 bc 49 60 32 3c
       0.0035834948 0.17527398 -0.013689924 0.010887214
000220 9f 4c 22 bc 52 fb 59 3c b9 d8 86 bd 16 46 f9 bd
       -0.009905963 0.013304548 -0.06584305 -0.12171571
000230 16 67 4d bd b6 df fa 3c a9 1d a8 3d 01 84 a8 3d
       -0.05014714 0.030624252 0.08208782 0.08228303
000240 e9 60 c8 3d e6 67 0b 3e b8 23 03 bd 20 e2 b8 bd
       0.09784109 0.13613853 -0.032016486 -0.09027505
000250 bf d9 08 3e ff 3e 82 3d 1e 36 bc 3c 53 cb 2f 3d
       0.13364314 0.06359672 0.022975024 0.042918514
000260 39 1d d6 3d 60 7d d6 bc d8 21 d8 3d e4 0e 96 3c
       0.104547925 -0.02618283 0.1055333 0.018317647
000270 9e 0b b3 bc 57 47 18 bb 31 aa bc bd 29 f4 c9 3c
       -0.021856125 -0.0023235881 -0.09212149 0.024652557
000280 5c d6 a8 bd a5 03 2b 3d 94 a3 06 3e c9 f4 c6 bd
       -0.08244011 0.041751523 0.13148338 -0.09714658
000290 b5 e6 d0 3c 10 f3 72 bd db 79 fa bc 59 5f 82 3d
       0.025500635 -0.059313834 -0.030575683 0.06365842
0002a0 3c 9d 79 bd 89 69 00 3e 33 48 04 be e4 9e 8a bd
       -0.060940966 0.12540258 -0.12918167 -0.06768587
0002b0 d5 84 bb 3d 3c 28 57 3c bc 5c 09 3d 38 2c ba 3c
       0.09156195 0.013132151 0.033535704 0.022726163
0002c0 85 1f a9 bd 25 1d 41 3d 31 fe 18 3d f1 07 d5 3c
       -0.08257965 0.047146935 0.03735179 0.026004763
0002d0 e4 f7 30 bd ce a0 c9 bd eb 1b dc 3d ce 76 ab 3d
       -0.043205157 -0.09845124 0.107475124 0.083722696
0002e0 a7 d6 a3 bd 44 5a b6 3d 19 5d a9 bd df 14 f0 3c
       -0.07999926 0.089039356 -0.0826971 0.029306827
0002f0 32 3f 69 3d dc 33 c1 bd b9 eb 3a 3d fc f6 11 3c
       0.056945033 -0.094337195 0.04563496 0.008908983
000300 22 76 7b 3c 28 d4 74 3d 3f 83 ec 3c 60 72 f4 3c
       0.015347989 0.05977264 0.028871177 0.029839694
000310 26 98 db 3d ee 9e 98 bd 9b 6b d0 bb 81 78 cc 3c
       0.107223794 -0.074521884 -0.006360484 0.024959804
000320 95 47 e2 3d 2f 18 85 3a d0 76 21 be 28 0d 99 bc
       0.110488094 0.0010154302 -0.1576798 -0.018683031
000330 d2 b4 e1 bc 44 55 53 3a 7b eb 0d 3e 3c fb 98 3d
       -0.027552042 0.0008061717 0.1385936 0.07469794
000340 ac 9a 4e be a6 92 29 bd 99 21 e5 3c 25 3d b0 bc
       -0.2017619 -0.04139962 0.027970122 -0.021513531
000350 d8 b9 92 bd ec 61 e8 3c c2 34 ab 3d 75 8e b1 bd
       -0.07164353 0.028367005 0.08359672 -0.0866975
000360 17 96 e4 bc c0 48 c6 3d 23 c0 4c 3d ec 22 83 bd
       -0.0279036 0.09681845 0.049987923 -0.06403145
000370 31 44 4d bd 73 36 fe b8 af 2b a2 3d 29 26 61 3d
       -0.05011386 -0.00012121806 0.07918488 0.054968033
000380 78 dc 50 bd ed d1 dd 3d 02 95 aa bc ed 08 ac bd
       -0.050991505 0.10831056 -0.020823006 -0.0840014
000390 6f 0f a3 bc 5c 4a a0 3d 3e db 00 be 03 ab 50 3d
       -0.01990482 0.07826683 -0.12583634 0.05094434
0003a0 2c da f2 3d 3f 8b 45 be be d2 ac 3d 1e 29 70 3b
       0.11858019 -0.192914 0.084386334 0.0036645602
0003b0 ba fa 6c bd 07 29 94 3d 8e fd 80 bd f4 74 07 bc
       -0.0578563 0.07234388 -0.06298362 -0.00826763
0003c0 1d 60 20 bd ea e6 dd bd 48 d0 39 bb 93 13 11 be
       -0.03915416 -0.10835059 -0.0028352905 -0.14167623
0003d0 2d 31 b1 bc c5 35 78 3d 15 2b fc 3b f9 b9 a5 bd
       -0.021629894 0.060598154 0.0076955655 -0.08092112
0003e0 9a a9 12 bd 03 16 b7 3d a1 12 f7 3c f3 aa 0b be
       -0.035806276 0.08939745 0.03016025 -0.1363943
0003f0 24 eb 47 3d 7e 53 86 bd a0 3d 57 bc 5b 02 1b bc
       0.048808232 -0.065588936 -0.013137251 -0.009461011

bias f4 [72]
000000 eb 9f 3d 3c 64 3e fe 3c 67 bd c8 bc 12 08 b3 3d
       0.011573772 0.03103561 -0.024504377 0.08741774
000010 42 20 9a 3d 92 95 9e 3d d3 54 70 bd 99 5e 65 3d
       0.07525684 0.07743372 -0.058674645 0.05599842
000020 d1 e9 4e 3d a8 fa a3 bd 42 d4 28 bd 42 e1 91 3c
       0.050515953 -0.08006793 -0.04121805 0.017807607
000030 dd 07 66 bd 37 2a cf 3d 35 d1 fa 3c 0f 05 9a bd
       -0.056159843 0.10115474 0.030617336 -0.07520496
000040 f9 f9 92 bd d0 3f ca bc 24 22 4e bd 01 80 22 3c
       -0.07176585 -0.024688631 -0.050325528 0.009918214
000050 fc ac 0e be a3 82 27 b9 b0 68 0e be 1b 4f 11 be
       -0.13933176 -0.00015975027 -0.13907123 -0.14190333
000060 df 32 44 3c 9d 09 6e bd ce 98 7e 3d 4f 41 8e bd
       0.011975019 -0.058114637 0.062157445 -0.069460504
000070 82 08 2f bd cb 62 07 3c 25 f1 fe 3c 55 80 e7 bc
       -0.042732723 0.0082633 0.031120846 -0.028259436
000080 ef ae 76 3d 1a 87 1c bd 6f c3 f6 3d 14 42 1e bd
       0.060225423 -0.03821478 0.12048995 -0.038637236
000090 1b a3 37 bd 54 24 2f 3c 42 d4 f5 3d 9d d7 d9 bd
       -0.044833284 0.010689814 0.120033756 -0.10636828
0000a0 c9 5d 86 3d b8 d3 e3 ba 21 43 35 3b 1d f7 19 bd
       0.06560857 -0.0017381823 0.002765842 -0.03758918
0000b0 f4 2b 9e bd 14 fa 8c bd aa 97 a2 bd b2 c0 97 bd
       -0.07723227 -0.06883636 -0.07939084 -0.074098006
0000c0 17 1c c6 3c d8 26 c3 bd fb 86 33 3d 86 8b 30 3d
       0.024183316 -0.09528893 0.0438299 0.04310181
0000d0 17 52 cc ba bc e6 ab bd 08 1d 90 bd a4 62 3d 3c
       -0.001558843 -0.083936185 -0.07036787 0.011559162
0000e0 32 2d 5b 3c f9 cd 03 be 60 77 8f 3d e9 51 45 3d
       0.013377475 -0.12871541 0.07005191 0.04817382
0000f0 44 df 79 3d 73 d4 99 3b 3b 11 3c bc 69 68 af 3d
       0.06100394 0.0046945154 -0.011478717 0.085648365
000100 ca f3 87 3d f0 de a4 3d 17 41 7a bd 1a 31 85 3d
       0.06638296 0.080503345 -0.06109723 0.06503506
000110 4c 45 97 3b e6 7d f0 bb 96 d9 33 bd 4a f5 9e bd
       0.004616415 -0.007339227 -0.043908678 -0.07761629
